wlf/calibration_tools/calibration_models/XY and Yaw Filtered - 25 threshold/20240201-140400_20240131_model.ckpt (torch, 8335 bytes, 6 tensors)

linear_relu_stack.0.weight f4 [32, 6]
0.26403466 -0.48964876 -0.20332724 1.1213644 0.37222877 -0.23587127 -0.27116066 0.14658804
-0.5296021 -0.7425428 0.78361475 -0.43968934 0.7129437 -0.2809431 -0.24975736 -0.8160564
0.55465937 0.95753896 0.02726477 0.9588532 0.15612012 -0.94562125 0.51008767 0.09371339
-0.47420713 -0.8065669 -0.9414077 -0.5380319 -0.5295795 -0.67764693 -0.52545315 0.10621874
0.056048404 -0.33930558 -1.6520993 0.23561153 -0.21268754 -0.6946152 -0.19342683 -0.8940221
-1.1879616 -0.119903885 -0.61786133 0.48864886 -0.38491052 -0.31177527 -0.75802094 -0.82834417
0.085988715 -0.7022473 0.16316143 -0.12649974 0.1990223 -1.0366155 0.12998053 -0.028701691
0.27427718 0.02173076 1.5542212 -0.010194562 0.15146422 -0.16897637 1.0713853 -0.80882096
1.0332078 -0.026937036 -0.25326264 0.3882977 -0.98391086 0.8198388 0.989748 0.054390352
-0.38478926 1.5571369 -0.25793222 0.42707607 -0.70526135 -0.24481376 -0.34458956 -1.1154884
1.3650465 -0.48714304 0.68153214 0.26322177 0.65747994 -1.2860636 -0.6879005 -1.08731
0.2391763 0.73051655 0.9957106 0.9787072 -0.3663221 0.8590182 -0.7107709 0.36379978
-0.200887 -0.2516139 0.9549507 -0.052698895 -1.0990573 0.25786522 -0.08487086 0.25195912
-0.050938357 -1.753742 0.2829941 -0.35341012 -1.2835128 -0.78824085 -0.61802584 0.5891402
-0.11404455 0.31323227 0.027579302 -0.10400576 0.12565576 0.1694061 -1.1488198 0.029113201
0.042127185 1.0643566 0.62711394 -1.218052 -0.61816853 0.07625924 1.5189703 0.30902764
-0.6259528 0.09843125 -0.8259086 -0.096101835 -0.72451305 0.13464683 0.6972739 0.083524436
0.5564719 0.7432255 -0.37884754 0.5836358 -0.6836229 1.0621916 0.11479604 0.6563171
0.076537564 0.6152137 -0.82220083 -1.065532 -0.6527674 -0.110558644 -0.12841128 0.58723086
1.1074855 -0.5789049 0.044642836 0.017948227 -0.19856916 0.14647678 1.1908458 0.48946568
0.16494855 0.62764937 0.7792844 -0.4049048 0.07906652 1.3961672 -1.0757078 -0.24675436
0.41016072 -0.2033957 -0.3620292 -0.38637978 -0.6063088 0.96019894 1.1829286 0.4935162
1.0175189 0.5403933 0.56064147 -0.059688285 -0.5143493 0.18644977 -0.6219314 -0.94830084
-0.7373818 -0.16674155 -0.9142847 0.5270843 -0.8652056 0.8167321 0.42927286 0.20787661
00000000: 8d2f 873e 3eb3 fabe 0435 50be de88 8f3f
00000010: c594 be3e 3d88 71be 92d5 8abe 2d1b 163e
00000020: 0194 07bf 4917 3ebf fa9a 483f f61e e1be
00000030: 7a83 363f c6d7 8fbe 65c0 7fbe 12e9 50bf
00000040: 28fe 0d3f 4621 753f 5e5a df3c 6777 753f
00000050: f4dd 1f3e 3c14 72bf 1b95 023f ceec bf3d
00000060: 47cb f2be 2b7b 4ebf 1800 71bf 75bc 09bf
00000070: 8692 07bf 457a 2dbf 1984 06bf 3689 d93d
00000080: 0393 653d 76b9 adbe fd77 d3bf 2644 713e
00000090: c3ca 59be 4dd2 31bf af11 46be a2de 64bf
000000a0: 200f 98bf 2b90 f5bd 292c 1ebf 2f30 fa3e
000000b0: fe12 c5be 02a1 9fbe a90d 42bf 5d0e 54bf
000000c0: da1a b03d 7bc6 33bf ca13 273e 2689 01be
000000d0: 80cc 4b3e d1af 84bf 9e19 053e cf1f ebbc
000000e0: 0f6e 8c3e b504 b23c b8f0 c63f 1807 27bc
000000f0: 7019 1b3e 2408 2dbe 2723 893f e40e 4fbf
00000100: 2740 843f 0fab dcbc a4ab 81be f5ce c63e
00000110: 95e1 7bbf f5e0 513f 2060 7d3f 6bc8 5e3d
00000120: 1903 c5be 4350 c73f b10f 84be b7a9 da3e
00000130: 028c 34bf 75b0 7abe 0b6e b0be 53c8 8ebf
00000140: d8b9 ae3f d06a f9be e478 2e3f 01c5 863e
00000150: 9b50 283f bb9d a4bf 3f1a 30bf f92c 8bbf
00000160: a2ea 743e 2203 3b3f e4e6 7e3f 8e8c 7a3f
00000170: 928e bbbe 9ee8 5b3f 15f5 35bf f743 ba3e
00000180: 52b5 4dbe 89d3 80be a677 743f ccda 57bd
00000190: e9ad 8cbf e906 843e c6d0 adbd c900 813e
000001a0: bda4 50bd 9e7a e0bf 9ae4 903e 2cf2 b4be
000001b0: 264a a4bf 27ca 49bf f136 1ebf e4d1 163f
000001c0: 3090 e9bd fb5f a03e fded e13c f900 d5bd
000001d0: e7ab 003e cb78 2d3e 870c 93bf cf7e ee3c
000001e0: 8e8d 2c3d d63c 883f 8a8a 203f 21e9 9bbf
000001f0: 4b40 1ebf ce2d 9c3d 9e6d c23f df38 9e3e
00000200: 713e 20bf 5396 c93d bf6e 53bf 0ad1 c4bd
00000210: b079 39bf dce0 093e 8b80 323f dc0e ab3d
00000220: f174 0e3f 0744 3e3f 4ef8 c1be 2869 153f
00000230: e901 2fbf e5f5 873f 301a eb3d 6604 283f
00000240: babf 9c3d a57e 1d3f c17b 52bf 5a63 88bf
00000250: c41b 27bf 926c e2bd 3f7e 03be c354 163f
00000260: 16c2 8d3f 1d33 14bf 68db 363d 2908 933c
00000270: b755 4bbe 02fe 153e a36d 983f 3f9b fa3e
00000280: 46e8 283e a1ad 203f 2f7f 473f af4f cfbe
00000290: a1ed a13d 9bb5 b23f cbb0 89bf 2dad 7cbe
000002a0: 9600 d23e f646 50be e45b b9be 92d3 c5be
000002b0: 0e37 1bbf 99cf 753f 346a 973f 28ae fc3e
000002c0: 0f3e 823f 3757 0a3f 3386 0f3f b47b 74bd
000002d0: 65ac 03bf b0ec 3e3e e536 1fbf d8c3 72bf
000002e0: 0ec5 3cbf 4cbe 2abe 900e 6abf ffee 063f
000002f0: 1d7e 5dbf 5b15 513f a7c9 db3e 9bdd 543e

linear_relu_stack.0.bias f4 [32]
0.95038193 0.57742894 -0.24243075 0.3213947 0.16487445 0.7815531 0.04011875 0.08358104
0.70698273 -0.025009373 0.33222938 -0.3859317 0.40280047 -0.54812264 0.9576419 0.32980102
-0.28886384 -0.14846772 0.46024 1.1392668 0.18440159 0.5862491 0.87617195 -0.37549496
0.26316312 1.208287 -0.07768381 -0.57654214 0.28454432 0.123782285 1.1739013 0.5052267
00000000: 3b4c 733f 62d2 133f c43f 78be d98d a43e
00000010: d9d4 283e dd13 483f 8f53 243d 892c ab3d
00000020: d2fc 343f 75e0 ccbc f819 aa3e d798 c5be
00000030: dd3b ce3e c451 0cbf 0528 753f aedb a83e
00000040: f6e5 93be ec07 18be 94a4 eb3e 7fd3 913f
00000050: c5d3 3c3e 6c14 163f ce4c 603f e040 c0be
00000060: 51bd 863e 26a9 9a3f b018 9fbd 4498 13bf
00000070: cbaf 913e 9181 fd3d 6642 963f 8956 013f

linear_relu_stack.2.weight f4 [32, 32]
-0.27717003 0.5371079 1.3829879 0.59859395 -0.35208344 -2.2032185 -0.47681627 -0.06264774
0.06691588 0.21714203 0.26797906 0.65075934 0.34735337 0.24311854 0.11076932 -0.09215592
-0.91575915 0.25007203 -0.4282599 -2.081406 -0.36017674 -0.21111058 0.05155971 0.23557891
-1.0930054 -0.04465613 0.063102745 0.916029 -0.06345969 0.57479435 -0.16921654 0.14617714
-0.46090493 -0.15518388 0.8133382 -1.0254406 -0.024028605 0.23248596 0.086272344 0.43598714
-0.046903115 0.08711632 -1.0039349 0.6032611 -0.65115356 -1.1308196 -0.47921222 0.49631006
0.5665772 0.20326898 0.099885024 -0.34177428 0.16455513 0.22415395 0.32352364 0.100896485
-0.6555069 0.120352596 0.027653722 -0.5301296 0.53865206 -1.0235925 0.24650003 0.38142434
-0.5854206 0.65791273 0.5542301 0.41026914 0.02378464 0.62747854 0.66393113 0.106745
0.21175075 0.18477795 -0.41149408 0.61323833 -0.530284 0.5829706 0.42161417 -1.0622287
0.5123603 0.11540432 0.72861785 0.6031158 0.1678926 -0.64328605 0.21976285 -0.06353849
-0.37489334 0.33415174 -0.065288246 -1.5522642 -0.36497185 0.101538904 -0.34309527 0.2772363
-0.31143776 0.3318162 0.26298186 0.3898258 -0.22710343 -1.1899654 -0.14681028 -0.61323935
0.4603108 0.77277267 0.52097994 0.18095784 0.4721013 0.8224043 0.74535364 -0.709936
0.98635703 0.29296887 -0.69813734 -0.24160324 -0.117442966 -0.4383994 0.35489288 1.0050055
0.15215936 -0.23524718 -0.012797356 -0.19691761 0.17235148 0.5037095 -0.42196885 0.3960279
0.33709845 -0.44391066 0.058089484 -0.19610067 0.17547984 -0.40888083 0.15502469 0.25194234
-0.49986264 -0.60127336 0.25892752 -0.23369153 0.5760623 -0.013722625 0.9941502 -0.1337133
-0.4489016 -0.11245572 0.083494246 -0.1316716 -0.0844331 -0.35759994 0.06416225 -0.5728458
0.35743323 0.44269916 -0.15142381 0.050578155 -0.2835654 0.11199774 0.5167621 0.45167553
0.39814505 0.15374741 0.32044032 -0.24805109 0.39905307 -0.42501086 0.06832021 -0.007251558
-0.027986573 0.31937867 0.36863023 0.08092873 0.031454325 0.14128572 0.45732725 0.52599436
0.096487746 0.23031251 -0.3813565 -0.25734037 -0.023204966 -0.74531996 0.12355427 -0.10408255
0.7958766 -0.032055344 0.49593884 0.094467126 0.034474548 -0.14209591 0.40748948 0.6224849
0.6200457 -0.39458176 -0.46832296 -0.6297731 -0.26747632 -0.5384368 0.18927316 0.3668533
-0.26653907 -1.8180285 -0.17854027 -1.2812781 0.24021257 -0.88150483 0.41809317 0.54212797
-0.7669234 -0.6061849 -0.1717727 0.08304509 -0.025862904 -0.37162766 0.4094757 -0.6006009
0.5286197 0.5777993 -0.084390484 -0.075502865 0.21801013 -0.27690434 0.73964065 0.019944191
-0.3425154 -0.11836053 0.33636194 -0.19604322 -0.12832378 -0.11596517 -0.2116768 -0.016404713
-0.31501263 0.012532154 0.19458546 -0.33668151 -0.40400058 0.08447198 0.5522466 0.4128489
0.20486327 -0.4171824 0.42410383 0.40612924 0.34579974 -0.4567916 0.019551812 -0.1890149
0.31468058 0.16577953 0.3657283 -0.12318601 -0.23650225 -0.32373938 0.26640016 -0.022224681
00000000: 3be9 8dbe e77f 093f bf05 b13f 743d 193f
00000010: 4844 b4be 8801 0dc0 4321 f4be 754d 80bd
00000020: 310b 893d 7b5a 5e3e 8d34 893e 2a98 263f
00000030: 4dd8 b13e 11f4 783e 06db e23d 3ebc bcbd
00000040: 316f 6abf 7109 803e e244 dbbe c235 05c0
00000050: 1669 b8be 5f2d 58be 4630 533d 993b 713e
00000060: 9ae7 8bbf 59e9 36bd 033c 813d e080 6a3f
00000070: 27f7 81bd b925 133f 1a47 2dbe 76af 153e
00000080: bbfb ebbe 86e8 1ebe ef36 503f a341 83bf
00000090: a3d7 c4bc cd10 6e3e 8eaf b03d b539 df3e
000000a0: 7b1d 40bd 0b6a b23d f080 80bf 526f 1a3f
000000b0: 00b2 26bf b2be 90bf 4e5b f5be 5a1c fe3e
000000c0: 340b 113f be25 503e 8590 cc3d 0afd aebe
000000d0: 2481 283e 9d88 653e e4a4 a53e d1a2 ce3d
000000e0: 4dcf 27bf 6c7b f63d 0f8a e23c 93b6 07bf
000000f0: 1ae5 093f 1405 83bf 816a 7c3e 0d4a c33e
00000100: 20de 15bf f86c 283f 06e2 0d3f cc0e d23e
00000110: 01d8 c23c 6fa2 203f 64f7 293f 1f9d da3d
00000120: 30d5 583e 6e36 3d3e 5aaf d2be 30fd 1c3f
00000130: b1c0 07bf 903d 153f d0dd d73e 1cf7 87bf
00000140: 0b2a 033f 1a59 ec3d b386 3a3f cc65 1a3f
00000150: 0aec 2b3e 65ae 24bf 8309 613e 7820 82bd
00000160: 05f2 bfbe f015 ab3e d8b5 85bd 98b0 c6bf
00000170: 97dd babe a1f3 cf3d 2faa afbe ebf1 8d3e
00000180: c574 9fbe d0e3 a93e 8fa5 863e 3f97 c73e
00000190: cd8d 68be c950 98bf 6f55 16be 41fd 1cbf
000001a0: dbad eb3e 6ed4 453f f15e 053f 034d 393e
000001b0: 43b7 f13e 1789 523f 7fcf 3e3f 5ebe 35bf
000001c0: e581 7c3f 0400 963e 21b9 32bf d766 77be
000001d0: f085 f0bd e375 e0be 85b4 b53e 05a4 803f
000001e0: aacf 1b3e a3e4 70be 00ac 51bc c5a4 49be
000001f0: e87c 303e 1bf3 003f 4d0c d8be 2bc4 ca3e
00000200: 2b98 ac3e 4248 e3be 3def 6d3d 9dce 48be
00000210: fdb0 333e d458 d1be cbbe 1e3e 96fe 803e
00000220: ffed ffbe 0ded 19bf 2692 843e d54c 6fbe
00000230: d278 133f dcd4 60bc a180 7e3f 24ec 08be
00000240: 6ed6 e5be 2f4f e6bd 08ff aa3d ebd4 06be
00000250: 43eb acbd 5717 b7be 7f67 833d 06a6 12bf
00000260: 7d01 b73e 77a9 e23e d80e 1bbe 0a2b 4f3d
00000270: 7c2f 91be 125f e53d 854a 043f 0442 e73e
00000280: abd9 cb3e f66f 1d3e c110 a43e 1b01 7ebe
00000290: af50 cc3e 069b d9be 77eb 8b3d 7a9e edbb
000002a0: 1944 e5bc 9a85 a33e 1abd bc3e f6bd a53d
000002b0: 40d6 003d 34ad 103e cc26 ea3e 91a7 063f
000002c0: 5e9b c53d 0bd7 6b3e 2941 c3be 1ec2 83be
000002d0: 5718 bebc 4acd 3ebf 050a fd3d 3b29 d5bd
000002e0: 92be 4b3f 774c 03bd b2eb fd3e fb77 c13d
000002f0: 2f35 0d3d 9781 11be 76a2 d03e 2c5b 1f3f
00000300: 51bb 1e3f 9f06 cabe 07c8 efbe cf38 21bf
00000310: a8f2 88be fed6 09bf d3d0 413e 32d4 bb3e
00000320: cf77 88be 28b5 e8bf 43d3 36be ec00 a4bf
00000330: 49fa 753e 4daa 61bf 4f10 d63e e6c8 0a3f
00000340: 1855 44bf ef2e 1bbf 2fe5 2fbe 8b13 aa3d
00000350: 71de d3bc fb45 bebe cda6 d13e fbc0 19bf
00000360: 9f53 073f a8ea 133f ebd4 acbd 3fa1 9abd
00000370: 0c3e 5f3e 68c6 8dbe 1759 3d3f 0062 a33c
00000380: 2e5e afbe 0167 f2bd a237 ac3e 8ebf 48be
00000390: 4f67 03be 267f edbd cec1 58be 2d63 86bc
000003a0: 5649 a1be aa53 4d3c 6941 473e 8561 acbe
000003b0: 2ad9 cebe a5ff ac3d 0860 0d3f ee60 d33e
000003c0: adc7 513e ee98 d5be 2324 d93e 2cf0 cf3e
000003d0: aa0c b13e 97e0 e9be 1f2b a03c 1f8d 41be
000003e0: d01d a13e 1cc2 293e bd40 bb3e f248 fcbd
000003f0: a52d 72be 2bc1 a5be 9a65 883e 8910 b6bc

linear_relu_stack.2.bias f4 [32]
-0.13188277 -0.4785301 0.73525107 -0.034456067 -0.009915095 -0.13475257 0.81145877 0.16771226
0.07480118 0.13950565 0.15925267 -0.21333605 0.10234275 0.28452992 0.50866944 0.25115243
1.0422509 -0.16748896 -0.09767774 -0.56351835 0.2125654 0.33218968 0.19590159 0.36587414
0.029657645 0.37692812 -0.16117145 -0.8437485 0.35960293 0.09128837 0.34457427 -0.00881351
00000000: 470c 07be e601 f5be 6a39 3c3f ce21 0dbd
00000010: ec72 22bc 94fc 09be c3bb 4f3f c3bc 2b3e
00000020: 5c31 993d 92da 0e3e 2213 233e c474 5abe
00000030: 1399 d13d e8ad 913e 2938 023f 0d97 803e
00000040: 7a68 853f 3a82 2bbe 440b c8bd bd42 10bf
00000050: bfaa 593e c414 aa3e 6d9a 483e db53 bb3e
00000060: 97f4 f23c b9fc c03e 210a 25be e7ff 57bf
00000070: e01d b83e 66f5 ba3d 0a6c b03e 8a66 10bc

linear_relu_stack.4.weight f4 [4, 32]
1.4087936 0.74924606 0.10556031 0.002691421 -0.40752804 -0.58349794 1.5216937 -0.8861024
0.5708369 0.46079051 1.3303242 -1.1649517 1.0352969 0.51416004 -0.68392086 0.2753766
1.5669758 -1.9056691 -0.65345156 -0.9263738 0.49036604 0.48698363 0.49467343 0.11880092
0.62643313 0.24307378 0.49474686 0.5809959 0.66009337 0.081329085 -1.034316 -1.324398
-0.76844054 -0.6312079 0.79628634 0.39790928 -0.83636594 -0.121667266 -2.4920828 0.511047
0.092613064 0.36025256 -0.87808347 -0.6233519 -2.3433154 0.15610455 0.7693789 0.41387445
-1.4182161 1.1344149 -0.13457623 0.8063415 0.040185086 0.26997834 0.13846123 0.18404467
0.05830549 0.4841301 -2.433705 0.71187085 -0.10177485 0.5689801 0.9141463 1.0684733
-1.1621766 1.6470748 -2.1266615 1.6347078 1.307769 0.5926274 0.7244893 -0.047272906
-1.5276897 -1.8734578 -0.50285697 1.6448789 -0.23401695 0.9851133 -1.286257 -1.5497352
-1.0553355 1.0862088 0.9059225 0.5254212 -1.0890439 -0.06343156 -1.5538443 1.7449058
-1.2175652 -1.5965259 0.87168485 -0.004273999 -1.5783814 0.26400328 -0.2605755 0.73010606
-0.40147796 -1.0151103 -0.46930516 -1.1483121 0.46419603 0.85544926 0.5261003 0.9269175
-0.21332258 -0.13782969 0.41131258 0.8533626 1.968852 -1.3866043 0.6499896 -0.19211386
1.3893125 0.40728772 0.17618671 -1.0824335 0.12890287 -1.3720093 0.631116 -1.0190911
0.2851206 0.38969144 1.3154856 -2.2893376 0.8816551 -1.062054 0.32197836 -0.068967104
00000000: 5953 b43f 97ce 3f3f 0130 d83d 8d62 303b
00000010: 84a7 d0be 1f60 15bf dcc6 c23f 9bd7 62bf
00000020: 5e22 123f bcec eb3e 1048 aa3f 231d 95bf
00000030: 9c84 843f fe9f 033f 7015 2fbf 29fe 8c3e
00000040: aa92 c83f f7ec f3bf 9a48 27bf d526 6dbf
00000050: 4211 fb3e eb55 f93e d645 fd3e e64d f33d
00000060: ec5d 203f 55e8 783e 764f fd3e 26bc 143f
00000070: e1fb 283f dd8f a63d 7764 84bf e085 a9bf
00000080: 85b8 44bf d796 21bf 6cd9 4b3f c4ba cb3e
00000090: 141c 56bf b02c f9bd 497e 1fc0 fad3 023f
000000a0: ebab bd3d 0673 b83e 14ca 60bf fd93 1fbf
000000b0: e1f8 15c0 dfd9 1f3e 04f6 443f 5ae7 d33e
000000c0: 1b88 b5bf 8234 913f 5ace 09be 666c 4e3f
000000d0: 1e99 243d 9a3a 8a3e c8c8 0d3e 3576 3c3e
000000e0: bdd1 6e3d e7df f73e d3c1 1bc0 2b3d 363f
000000f0: 556f d0bd aea8 113f 7e05 6a3f bcc3 883f
00000100: 34c2 94bf 59d3 d23f 391b 08c0 1b3e d13f
00000110: f964 a73f 6eb6 173f 2178 393f 3ca1 41bd
00000120: 568b c3bf 77cd efbf 3cbb 00bf 648b d23f
00000130: 24a2 6fbe 6330 7c3f 12a4 a4bf b95d c6bf
00000140: 3c15 87bf e408 8b3f 89ea 673f 0182 063f
00000150: ca65 8bbf 68e8 81bd 5fe4 c6bf 1359 df3f
00000160: 2dd9 9bbf f65a ccbf bd26 5f3f e70c 8cbb
00000170: 6708 cabf 702b 873e 276a 85be 3be8 3a3f
00000180: 858e cdbe 22ef 81bf c448 f0be e4fb 92bf
00000190: 1aab ed3e b9fe 5a3f 82ae 063f 774a 6d3f
000001a0: 3c71 5abe 3a23 0dbe 9097 d23e f975 5a3f
000001b0: 5803 fc3f 407c b1bf b865 263f 7fb9 44be
000001c0: fed4 b13f 0488 d03e 4a6a 343e 2e8d 8abf
000001d0: 1dff 033e 009e afbf d190 213f 9471 82bf
000001e0: 54fb 913e a385 c73e d561 a83f 8284 12c0
000001f0: 26b4 613f 63f1 87bf 59da a43e a03e 8dbd

linear_relu_stack.4.bias f4 [4]
0.082581036 0.12233707 -0.36311388 0.07946403
00000000: 3f20 a93d dc8b fa3d 10ea b9be 0abe a23d
