wlf/calibration_tools/calibration_models/Unfiltered/20240201-134446_20240131_model.ckpt (torch, 8750 bytes, 6 tensors)

linear_relu_stack.0.weight f4 [32, 6]
00000000: 7079 1abe 8eaa 45bf 8081 083f 9ccd 85bf
00000010: e2ee ac3e 1ad3 36bf 5851 683d 049b 4b3c
00000020: e642 b03d 4cea 1fbd ae78 ac3f 4ac3 bd3c
00000030: 5dc0 a9be ef62 d53d e812 00bf 0689 c4bd
00000040: d90e e9bd d94b ff3e fcec eb3e 25de 823e
00000050: 568f 293e b800 89bf 3919 7dbf f1da eb3e
00000060: a7a8 2e3e fbf2 58bd d000 f83d a162 6c3d
00000070: 1cef 803f a391 3a3d d0be 723e ea50 84be
00000080: 85b8 c53e 6e16 62bf 49c2 3d3f 3580 4d3c
00000090: 2500 cabe 0da7 73be 9598 f53f c8d5 e1be
000000a0: 0761 99be 022a d33e 4f5f 883e 8f52 34bf
000000b0: f916 67bf 6a3f 30be 7ae7 c63e 5b06 053c
000000c0: 23d6 143f 4513 2b3f 7f9e 59bd 225f d43d
000000d0: 4c59 9a3f ebf2 c5bc 55ad 86bd 960d fd3e
000000e0: cd35 fc3e 6b8d 39be 8191 203f 2e70 09bf
000000f0: 83ae c0bd 2aa7 d8bc 6fe8 023e 3cd4 8fbd
00000100: f0d6 b3bf f707 523e 57df 933e 057d 46bf
00000110: 0ee7 0ebf a09b 863f 6dac 4cbd 5634 183d
00000120: 6881 9d3d 045f c0be 6240 513f a1ec b43e
00000130: c53e 16be df44 fa3e 6081 6a3d 76b7 fb3d
00000140: be58 94be 93c8 bd3e 8732 a03f 594a 913d
00000150: fc5f 313f c0a0 c13d a1e7 bd3e 001f e43c
00000160: 0fa2 223f 8386 233e fbcb f6bd bb15 393f
00000170: a205 43be 860e 623e d655 e1be 1390 50bf
00000180: 3c5a 7abc 77c5 3fbe 5bf1 0dbf 962f a83d
00000190: bcda 1fbf e661 1fbf 81a0 423f b66f 943f
000001a0: 6218 913d 9bf7 033f fecc 38bf 2f2d 123e
000001b0: 9e81 53bf 3ef7 ce3e 6e9d 4ebf 6d3e 6f3f
000001c0: dd3b ca3d 5887 743f 1dba 253e c907 1ebc
000001d0: 9204 503f 134e 0dbf 0f6f 813f 79af 2a3d
000001e0: ce76 b63e afa0 b4be 2922 c5bc a925 1bbf
000001f0: cb4f 393f 2e77 aebe 0a27 c53d 2078 a7bf
00000200: b0d2 4a3f 2800 933e 624e c1be 3e4c 77be
00000210: cdff c1bc b5da 853e f156 193e 084e 7bbf
00000220: a034 afbf 5c50 e9bd b336 73bf 38ff 033f
00000230: d44c b93e 5928 8b3e d639 bb3e 5e8a 363e
00000240: 28b9 093e 2758 08bd 44e4 843d 2def 233e
00000250: 7815 a33f 98e2 373e 1838 143d 6e9b 6fbe
00000260: b749 2abf 7b14 ffbe a948 babf ddbd 403d
00000270: 1bb1 9ebf f255 b2be 82f6 07bf 18ad 4e3f
00000280: f52e c13d a368 30bf cad6 843e a76a b43e
00000290: bd30 22be 1f36 16be 128b 1e3f f7fc 013f
000002a0: ef54 a73d 336e 253f 01c9 3cbf 7043 54bf
000002b0: fdba 803e 1441 68be e703 3dbe 3b43 52bd
000002c0: d589 443f 9481 44bf c414 a43e 3b05 253f
000002d0: 15e0 973f d156 8c3b e5aa 843e 4e29 d73e
000002e0: 336a 06be 95ee c2be 50d1 16bf c05c 1c3f
000002f0: 7e39 f03e 4851 fc3e 22a8 253f ff84 b93d
-0.15085387 -0.7721337 0.533226 -1.0453372 0.33776003 -0.71415865 0.0567182 0.012427095
0.0860651 -0.039041802 1.3474329 0.02316441 -0.33154574 0.10419261 -0.5002885 -0.09596448
-0.11379785 0.49862555 0.46079242 0.25560108 0.16558585 -1.0703344 -0.9886661 0.46065477
0.17056523 -0.0529661 0.1210953 0.057711247 1.007297 0.045549046 0.23705602 -0.25842983
0.3861734 -0.88315475 0.7412458 0.012542774 -0.39453235 -0.23794194 1.9187189 -0.44108415
-0.29956838 0.41242987 0.26635215 -0.70438474 -0.9026943 -0.1721169 0.38848478 0.008119191
0.58139247 0.6682628 -0.05312967 0.10369708 1.2058501 -0.024163684 -0.06576029 0.49424428
0.49259797 -0.18120353 0.6272202 -0.536868 -0.094082855 -0.026446898 0.12783979 -0.07022902
-1.4049969 0.20510851 0.28881332 -0.77534515 -0.5582131 1.0516243 -0.049969126 0.037159286
0.07690698 -0.3757249 0.81738865 0.35336784 -0.14672382 0.4888067 0.057252288 0.12290852
-0.28973955 0.37067088 1.251542 0.07094259 0.69287086 0.09454489 0.3709078 0.027846813
0.6352853 0.15969281 -0.12050625 0.72298783 -0.19045117 0.22075853 -0.440108 -0.8146984
-0.015280303 -0.1872767 -0.55446404 0.08212201 -0.6244314 -0.62258756 0.7602616 1.1596591
0.07084729 0.5154969 -0.72187793 0.14275049 -0.82619655 0.40423006 -0.8070897 0.9345463
0.09874699 0.9551902 0.16184278 -0.009645411 0.81256974 -0.55197257 1.0112017 0.04167125
0.35637516 -0.35278842 -0.02406414 -0.6060434 0.7238738 -0.34075302 0.09626587 -1.3083534
0.79227734 0.28711057 -0.37755114 -0.24150178 -0.023681546 0.26143423 0.14974572 -0.9816594
-1.3687935 -0.113922805 -0.9500534 0.5156131 0.36191428 0.2717922 0.36567563 0.1782622
0.13449538 -0.033287194 0.06488851 0.16009207 1.2740927 0.17957532 0.036186308 -0.23399135
-0.6651873 -0.49820313 -1.4553424 0.047056068 -1.2397798 -0.34831196 -0.53110516 0.8073287
0.094327845 -0.6890966 0.2594512 0.3523762 -0.15838905 -0.14669083 0.61930954 0.5077662
0.08170497 0.64621276 -0.7374421 -0.829154 0.2514266 -0.22681075 -0.1845852 -0.051333647
0.76772815 -0.7676022 0.32047093 0.64461106 1.186526 0.0042828103 0.25911632 0.420237
-0.1312645 -0.3807265 -0.58913136 0.61079025 0.46918863 0.49280763 0.64709675 0.0905857

linear_relu_stack.0.bias f4 [32]
00000000: 3aa3 e6be fe32 84be 1677 d43e 014d 9fbe
00000010: 5070 0abc 9943 bdbe a2ed 2fbe b910 813e
00000020: 4a6d df3e 9086 1c3e 3f24 9a3f 3c61 973d
00000030: 1ae0 a9be ee80 eebe 7933 04bf 138d 143f
00000040: 3e57 a43e ca3d b63e ee9e 27bf f73a 803d
00000050: 1286 d73e 10d9 36be 3a70 8d3f 0fb5 6dbf
00000060: 91b8 f1bc d01f 05bd a043 cbbe 9c42 08bd
00000070: 0a2e 81be d5a0 323f 89ff e2be 7f2c 0a3f
-0.45046407 -0.25820154 0.41497105 -0.31113437 -0.008449629 -0.36965635 -0.17180493 0.2520807
0.43638068 0.15285707 1.2042311 0.07391593 -0.33178788 -0.4658274 -0.5164104 0.5802776
0.3209781 0.35594016 -0.6547688 0.06261247 0.42094475 -0.1785624 1.1049874 -0.928544
-0.029506953 -0.032501042 -0.3970003 -0.03326665 -0.25230438 0.6977666 -0.44335583 0.53974146

linear_relu_stack.2.weight f4 [32, 32]
00000000: 80d0 00be d2f8 c73e 3a2a bebe 5b14 813e
00000010: f98f 733e 4f74 183f 49d3 dabe 1c15 c8bd
00000020: 85d9 c53d 2e97 e43e 8ada f0be 5d1e f6bd
00000030: 4f7a 35be 8b82 a93e f82c 3d3e 633b cfbe
00000040: f1c6 a5be f2c6 8ebd 6f5a 57be 427d 973d
00000050: d3ae de3e 421e c23e 7d31 73bf 201a f5bc
00000060: f8d7 6a3c 62e3 b13e 0745 0d3e 7fa6 df3e
00000070: fc8b bf3e 2ffc cebd 23ac 093f 16f5 023c
00000080: 65b9 bebd 25cf fc3e cd1b bebe a1d3 8ebf
00000090: bfda b33e 6083 ad3f 3721 99bb 8e72 4a3e
000000a0: 5e04 37bf 0530 213f 2d9f e53d a7c8 0d3f
000000b0: f12c 9abd 3da4 a0bd 1862 633e d2d9 5d3e
000000c0: c657 23be 1560 553e 9292 4cbf abb2 3f3f
000000d0: 2682 963e 731e 263e d612 27be ad08 223f
000000e0: ccea 043f 5a29 4bbe 86dd 5abe 38de 503e
000000f0: 7db7 6b3d f61c ee3e 8471 81be 7bde 11be
00000100: ca9f 19be ffae 9dbf aa25 3f3e a997 d0be
00000110: d1ba 18be b76a 17bf 4592 d43e f0c7 4d3f
00000120: 2305 443d 6564 dbbd 9a7b 8abc cec8 873d
00000130: 56ff b03e f1e2 d1be cceb 0b3f 0f47 86be
00000140: 019c 743e 6c50 4a3f d99c 23bc b0e5 d4be
00000150: 12b2 ed3e fb7d 9b3d ef5d da3d 8924 1dbf
00000160: c963 a4bd 1641 32be 72e9 dfbe 8117 1bbf
00000170: ed60 99bc 8d84 2c3e c1d7 ac3e facd 073f
00000180: a26c e93b 27dd 4abf 6beb 53be 4297 aa3d
00000190: ecdd ebbb 6e3e 81bf 13cb 863d 1463 193e
000001a0: be9c 183f 2280 733e 630b e83d aba3 0f3f
000001b0: d640 663e b2da aabd 7365 cbbc bb9f 373e
000001c0: e6a3 bb3e daee 243e e282 ba3e 3de6 24bf
000001d0: 7b28 2c3e 1f02 53be 5b3e 103e 3345 20bf
000001e0: 916d 853e 50ff db3e ac81 4f3e c6a6 b03e
000001f0: ee99 a0be 4d3e c2be 2783 65be a6af 013e
00000200: c21b 19bd a06c 35bf 589f ab3e 38a1 f43d
00000210: ee69 b7be 9242 7bbf 3fcf b73e e604 693e
00000220: 12f7 2f3f 6cb6 093e a2e1 aabe 80f4 013f
00000230: 79ed c4be 2b3b 21c0 1810 e3be 12e0 95be
00000240: e1da ab3d 3f87 883e ef6c e83d a9e1 433e
00000250: 74ef 863e eaa8 143f 7f16 66be f9d1 eabf
00000260: a0fb a7bc acc3 cabc d784 c9bd 43fa 25bf
00000270: ec58 31be d330 163e 47f9 c4be 82c1 183f
00000280: 70db 443f 7bc3 623e d6c1 1abf 1a93 903f
00000290: 8d0f 873e bfb2 983e c1ca 973e 6a1c 813d
000002a0: f6ea 1f3f 1b6e 2f3f 1458 66be 96af 373e
000002b0: 7828 b1bc 3205 a2be 30fc 0f3e a207 1abc
000002c0: 1fdd 14bf 3fc3 97be 5204 d1bb da1b e63e
000002d0: caf6 10be c479 c9be bc88 bdbe 41e9 8a3f
000002e0: d115 20be 0cad 5d3e dca0 2dbf 028a 47bd
000002f0: 0a8f 183d ca22 0b3e d28d 573e 03e3 173d
00000300: 76e0 a83d af1d b63f ee01 7fbe 5532 1bbe
00000310: e3d4 4c3f 9141 51be dedd d83e 6cc3 8d3e
00000320: bd32 c43d 1447 483e bc01 9e3e 6187 ea3e
00000330: 20ba e03e de67 3a3e 0cc6 06bf 1d85 1abe
00000340: 38c1 b5bd bf7e 9f3e 2ebb 143f a771 a33f
00000350: 6578 7abe f6fc 3cbf 4611 09be a215 ba3e
00000360: cc98 6c3f 16cf c83d 5b53 6fbf 8dda c03e
00000370: 1da3 9b3e 5ad5 c6be 12c0 983e 55e0 d03c
00000380: 411b 50be a789 a63e 95b9 14be 13b9 d3bc
00000390: 06b5 133e 76c1 e6bd dd65 053e e692 15bd
000003a0: 00de 08bf df73 263e 89ba e13e c82a c6bc
000003b0: f6f7 803e b3d3 563e 6fdf b83d 161a f93d
000003c0: 0841 89bc 033e 0bbb 4d2b 003e bbee 9c3d
000003d0: 7bde 12be 0526 efbe bded ae3e e6a3 f6bd
000003e0: 2863 c43d e51b 03be aa88 d8bd a1d9 6bbe
000003f0: d227 8f3d fe25 4c3e 9061 be3e 0b90 ddbe
-0.12579536 0.39057022 -0.3714159 0.25210842 0.2378539 0.5955247 -0.42739323 -0.09769651
0.09660629 0.4464659 -0.47041732 -0.1201751 -0.17722438 0.3310741 0.18474185 -0.40474996
-0.32378343 -0.069715396 -0.21030591 0.07396938 0.43492755 0.3791371 -0.9499739 -0.029919684
0.0143337175 0.34743792 0.13795863 0.43681714 0.37411487 -0.10106694 0.53778285 0.007993003
-0.09312705 0.4937679 -0.37130585 -1.1158334 0.35127828 1.3555717 -0.004673149 0.19770262
-0.7149104 0.62963897 0.11212001 0.55384296 -0.07528103 -0.07843826 0.22205389 0.21665123
-0.15951452 0.20837434 -0.7991115 0.74882 0.2939617 0.16222553 -0.16315779 0.6329449
0.5192077 -0.19839993 -0.21373567 0.2039727 0.057548035 0.4650647 -0.25281918 -0.14245026
-0.15002361 -1.231903 0.18666711 -0.40740708 -0.14915015 -0.5914721 0.41517845 0.80383205
0.04785646 -0.10712508 -0.016904641 0.06630097 0.34569806 -0.40993455 0.5465667 -0.26226088
0.23887636 0.79028964 -0.009986126 -0.41581488 0.4642492 0.07592388 0.10662448 -0.61383873
-0.08026845 -0.17407641 -0.43732792 -0.6058274 -0.018722976 0.16847439 0.33758357 0.5304867
0.0071235457 -0.792437 -0.20695274 0.083296314 -0.007198086 -1.0097177 0.06581702 0.14979202
0.5961417 0.23779348 0.11330297 0.5610911 0.2248567 -0.08342494 -0.024828648 0.17932026
0.36648482 0.1610674 0.3642798 -0.64413816 0.16812317 -0.20606278 0.14086287 -0.6260559
0.26060155 0.42968225 0.2026431 0.34502238 -0.3136744 -0.37938157 -0.22413312 0.12664661
-0.037379988 -0.70868874 0.33520007 0.119448125 -0.35823005 -0.98148453 0.35900304 0.22755775
0.68736374 0.13448495 -0.3337527 0.507637 -0.38462427 -2.5192363 -0.44348216 -0.29272515
0.08391357 0.26665685 0.113489024 0.19129051 0.26354563 0.5807024 -0.22469519 -1.8345329
-0.020505726 -0.024751507 -0.0983979 -0.64834994 -0.17319077 0.14667062 -0.38471434 0.5967027
0.76897335 0.22144882 -0.6045202 1.1294892 0.26379052 0.29823872 0.29646876 0.06304248
0.62467897 0.6852738 -0.22494537 0.17938074 -0.021625742 -0.3164459 0.14061046 -0.009401234
-0.58149904 -0.29641148 -0.006378689 0.44943124 -0.14156643 -0.39350712 -0.37018383 1.0852433
-0.15633322 0.21648043 -0.67823577 -0.0487156 0.037245788 0.1358749 0.21050194 0.03708173
0.082459375 1.4227809 -0.2490308 -0.15155919 0.8001234 -0.20435168 0.4235677 0.27688158
0.0957999 0.19558364 0.30860698 0.4580641 0.43892002 0.18203685 -0.52645946 -0.15089841
-0.08874744 0.31151387 0.58098114 1.2769059 -0.2445999 -0.7382349 -0.13385496 0.3634463
0.9242065 0.098051235 -0.93486565 0.3766674 0.30397883 -0.3883465 0.29834038 0.025497595
-0.20322897 0.32526895 -0.14523919 -0.025845086 0.14424524 -0.112673685 0.13027139 -0.036517046
-0.53463745 0.16255139 0.44087628 -0.024190322 0.2518918 0.20979194 0.090269916 0.121631786
-0.016754642 -0.0021246679 0.12516518 0.07662722 -0.14342682 -0.46708694 0.34165755 -0.1204298
0.09589225 -0.1280361 -0.105729416 -0.23032238 0.06990017 0.19936368 0.3718381 -0.4327396

linear_relu_stack.2.bias f4 [32]
00000000: dc5d 5abe 41fe 963e 47e5 b23e 3e49 efbe
00000010: 8f2c 323e 2d27 443f 1511 dbbe 2651 ab3e
00000020: fc28 6ebd 4444 d93e dd8c a03c 5af0 013e
00000030: cd75 973c 33bf 4b3f 18c3 513e 84f7 e23e
00000040: a359 5fbd 8876 25bb 92d1 91bd d526 1fbe
00000050: a1b6 88bd b2c6 413f 5f38 96bd c716 023e
00000060: 5e36 f5be 790d 2e3c c225 663f ebf6 b93d
00000070: d6d2 e43e 3249 ba3e 6136 11bb ae73 323e
-0.21324867 0.29490855 0.3494055 -0.46735567 0.1739981 0.7662228 -0.4278647 0.3346035
-0.058144554 0.42434895 0.019598419 0.12689343 0.018488789 0.7958862 0.20484579 0.44329464
-0.054528844 -0.0025247652 -0.071200505 -0.15542157 -0.06675459 0.7569381 -0.07334971 0.12704001
-0.4789304 0.010623329 0.89901364 0.09080299 0.44692105 0.3638397 -0.0022157656 0.17426941

linear_relu_stack.4.weight f4 [4, 32]
00000000: 8ee3 2b3f ddc3 683f 4206 7cbf 8042 92bf
00000010: 658b 0b3e 27f4 453f a92b b6bd 6830 273e
00000020: cc91 7a3f cc3f 443f 20a1 193e e2a8 3cbf
00000030: 11b8 303f d55c 1a3f 500f 6ebd 228f 683f
00000040: ef49 76bf 4f9c ff3f e16a aebf eaca 71bf
00000050: f9ea 0e3e bd0d aa3f 63df 77bf e28f 63bd
00000060: 6480 753f 7d03 513f 6b3c 563f c369 5b3f
00000070: c88b b0bf 699c 9a3e 1a53 1240 ee8c 343f
00000080: fbcf 7cbf 1da9 323c 0301 c53f fe81 84be
00000090: 3fe1 19c0 9012 6c3e 9675 1e3e fe8d bc3e
000000a0: 61ea 83be f680 0b3f 59eb 433f 6b81 853e
000000b0: a8e5 ae3f bc73 1a3f 852f 0b40 ff92 b6be
000000c0: da9d 603f d6db 14c0 b045 85be 0e4f 1c3e
000000d0: a23c 9fbf d4b3 9ebf a893 3c3f 859f e13c
000000e0: 6549 95bf eef0 fdbf 8b0f 0b3f 551b ee3e
000000f0: 9593 c33f 6fec dbbf 14f7 c4bf 425a dbbf
00000100: 050f 713f 0040 773f 8e91 aabe 2e93 bc3e
00000110: 93fc f43e 67f8 693f c921 b13f d41f 7f3e
00000120: 8ced 68bf 13e0 7cbf cf80 01c0 9954 4d3f
00000130: 0433 bcbf 63a2 f7bf 513c 9b3d 0ef7 99bf
00000140: ac87 c53d f70b 4f3f 1514 fa3e 77e5 f33e
00000150: d191 a03e 4e14 afbe 1bad fa3e 342b 063f
00000160: 52a0 0bc0 c922 7abf 31ac 09bf b4bf 9bbf
00000170: c225 2cbe d348 353f 1388 95bf 3349 1f3f
00000180: 80af 083f ada4 b7bf c651 2f3e 63f8 fc3e
00000190: da34 613f 39a9 bcbf 1c4e babf 002a 63bf
000001a0: 0f07 213f 09ee 73bf 7d61 523f 5a54 5bbe
000001b0: c86b fabf ad86 b8be 2b83 d2bf 30eb ca3e
000001c0: ccfc 283f de92 1c3f d853 253f 4b18 233f
000001d0: 9902 d23e d386 a1bd 3f2c a53e 55d9 51be
000001e0: 11b0 0640 ce6a 20bd 6503 b3be e09f 0ebf
000001f0: 33c0 953a ded2 aa3d cfa4 3f3f 4cd5 383f
0.67144096 0.90923864 -0.9844705 -1.1426544 0.13627394 0.7732567 -0.08895046 0.1632706
0.9787872 0.76659846 0.1500287 -0.73695195 0.69030863 0.602979 -0.058120072 0.90843403
-0.96206564 1.9969577 -1.3626367 -0.9445025 0.13956822 1.3285443 -0.96825236 -0.05555714
0.95899034 0.8164595 0.8368594 0.85708255 -1.3792658 0.30197456 2.286322 0.7052754
-0.98754853 0.010904578 1.5390934 -0.25880426 -2.404373 0.23053956 0.15474543 0.3682708
-0.25764754 0.54493654 0.7653099 0.260753 1.3663836 0.60332847 2.1747754 -0.35659024
0.8774086 -2.3259177 -0.2602973 0.15264532 -1.2440379 -1.2398629 0.73662806 0.027541885
-1.1663023 -1.9839151 0.5432059 0.46505228 1.5279413 -1.7181529 -1.5387902 -1.713692
0.94163543 0.9658203 -0.33314174 0.3683104 0.4784895 0.91394657 1.3838435 0.24914485
-0.9098747 -0.9877941 -2.0234869 0.8020721 -1.4703069 -1.9346431 0.07579864 -1.202852
0.09645018 0.8087763 0.48843446 0.47636005 0.3136125 -0.3419518 0.48960194 0.5240967
-2.1816602 -0.9770933 -0.5377837 -1.2167878 -0.16811278 0.70814246 -1.1682152 0.6222107
0.5339279 -1.434713 0.17121038 0.49408254 0.8797127 -1.4739143 -1.4555087 -0.8873596
0.62901396 -0.9528509 0.82180005 -0.21418896 -1.9564142 -0.3604025 -1.6446279 0.3963256
0.6601074 0.611616 0.6458106 0.63708943 0.41017607 -0.07887044 0.3226032 -0.20493062
2.1044962 -0.039164357 -0.34963527 -0.557127 0.0011425078 0.08341001 0.7486085 0.72200465

linear_relu_stack.4.bias f4 [4]
00000000: 4b39 f23e 33b9 523e eed9 833c e46e 66be
0.47309336 0.2057846 0.016095128 -0.22503239
