wlf/calibration_tools/calibration_models/20240105-144941_20240105_model.ckpt (torch, 8814 bytes, 6 tensors)

linear_relu_stack.0.weight f4 [32, 6]
1.2692955 1.1788335 -0.55851114 0.6726226 0.2804657 0.3562427 0.014067051 -0.19574383
0.2754506 0.036437206 0.3202019 0.56019205 -1.4850174 0.9604827 0.8181704 -0.00018195661
0.10210503 0.18398418 1.059212 -1.7070682 0.4040521 -0.24064323 0.4223653 -0.109131075
-0.22870965 0.19313663 0.8304628 0.5210038 1.0496053 -0.007837957 0.36678955 0.39418125
-0.039050285 0.49276954 0.14380747 -0.46889877 -0.05605186 1.3578154 -0.4303284 -0.8017051
-0.4691626 -0.19252276 -1.0432944 0.59237504 -0.024465214 0.110404596 0.29576388 -0.40421957
0.5690627 0.44711447 -0.53190386 0.09062122 0.16284028 0.7202024 1.2512002 0.14270115
0.5478111 -0.48719767 0.33683985 0.31734678 1.2919843 0.62068444 -0.5391147 1.1083932
-0.39062107 -0.21890661 -0.31646678 -0.72508514 -0.09357912 1.4522903 0.22800942 -0.4752423
-0.18714024 -0.20163916 -0.8169695 0.8364381 -1.5439092 0.30205062 -0.13948251 -0.12966055
0.36601788 -0.030802913 -0.94752896 0.4092107 -0.33573332 0.33655256 0.5082621 -0.2447045
-0.6595411 0.34322056 0.75576186 -0.25276497 -0.07491825 1.8921735 -0.016742578 0.09495088
-0.015444204 -0.097167164 -0.2601966 0.26292086 1.0472887 0.20390666 -0.061755314 0.14752404
0.40027052 0.3045366 -1.2014722 0.6543456 0.04872504 0.0113898935 0.4158196 -0.41558674
-1.212104 0.20378008 0.28212768 -0.07580867 -0.05177246 0.1500537 0.120034136 0.076261476
0.17869864 -0.21104181 -0.14024602 0.49143282 1.2302004 0.19451609 0.4575243 -1.2908593
-0.99973094 0.16809171 0.5139503 0.16201727 0.29000655 -0.0546731 -0.772656 0.33310053
1.8138813 -0.19055969 0.14814506 0.10695084 0.66075945 -0.34664524 0.8811849 -0.07394997
-1.0815121 0.049282726 0.44405484 0.81053776 0.23657648 0.6382189 -0.9221761 0.5883572
-0.2254991 -0.34718502 0.7955958 0.8938654 0.331642 0.038920045 -0.5106448 0.48781344
-0.9243269 -0.11828372 -0.373505 -1.6243948 0.3590376 0.25350177 0.43556812 -0.17350872
1.0018117 -0.9343682 0.32390064 0.08998041 0.19061212 0.03371355 0.94632995 -0.054307975
1.0308541 -0.39413276 0.61843914 0.11041768 -0.5990532 -0.122673154 -0.13814096 -0.25307286
0.25318196 1.4864199 0.33193728 1.1833438 0.16961923 -0.53806067 1.1784152 -0.2763667
00000000: 4678 a23f 04e4 963f 96fa 0ebf ff30 2c3f
00000010: 3399 8f3e 7165 b63e 7d79 663c 1271 48be
00000020: dc07 8d3e 2e3f 153d 81f1 a33e bf68 0f3f
00000030: 0d15 bebf 32e2 753f 9e73 513f 9bcb 3eb9
00000040: 711c d13d 5966 3c3e 4294 873f 3681 dabf
00000050: ebdf ce3e 2e6b 76be 4440 d83e 1d80 dfbd
00000060: dd32 6abe 9cc5 453e 3699 543f 8160 053f
00000070: 7759 863f c66a 00bc d7cb bb3e 20d2 c93e
00000080: 31f3 1fbd 4a4c fc3e 4442 133e 8013 f0be
00000090: a396 65bd e5cc ad3f 0154 dcbe 8c3c 4dbf
000000a0: 1536 f0be b024 45be ac8a 85bf e4a5 173f
000000b0: 466b c8bc ce1b e23d 5d6e 973e def5 cebe
000000c0: 18ae 113f 30ec e43e da2a 08bf 9e97 b93d
000000d0: 9abf 263e 2f5f 383f 5427 a03f 4020 123e
000000e0: 593d 0c3f f971 f9be 4676 ac3e 477b a23e
000000f0: be5f a53f 2de5 1e3f 6c03 0abf d4df 8d3f
00000100: 7cff c7be 0e29 60be ef07 a2be 2e9f 39bf
00000110: 69a6 bfbd a6e4 b93f 4d7b 693e f552 f3be
00000120: b1a1 3fbe 7f7a 4ebe ea24 51bf cf20 563f
00000130: d19e c5bf 61a6 9a3e 81d4 0ebe bcc5 04be
00000140: b266 bb3e 6456 fcbc 4291 72bf 1184 d13e
00000150: 3de5 abbe 9e50 ac3e 771d 023f d193 7abe
00000160: afd7 28bf 9bba af3e 9c79 413f 696a 81be
00000170: bd6e 99bd be32 f23f bb27 89bc 9b75 c23d
00000180: b009 7dbc 94ff c6bd 7d38 85be 909d 863e
00000190: 8e0d 863f e8cc 503e 24f3 7cbd 8b10 173e
000001a0: 42f0 cc3e 39ec 9b3e d7c9 99bf 3183 273f
000001b0: e893 473d ad9c 3a3c 4ee6 d43e c9c7 d4be
000001c0: 3926 9bbf baab 503e 0a73 903e 9341 9bbd
000001d0: 5c0f 54bd ada7 193e 75d4 f53d fa2e 9c3d
000001e0: c7fc 363e 581b 58be a79c 0fbe 159d fb3e
000001f0: 3577 9d3f 3a2f 473e a040 ea3e e13a a5bf
00000200: 5eee 7fbf 3c20 2c3e 3f92 033f dbe7 253e
00000210: bd7b 943e e7f0 5fbd c9cc 45bf 278c aa3e
00000220: 432d e83f 1422 43be 57b3 173e 0b09 db3d
00000230: 8827 293f 7c7b b1be 5595 613f 1573 97bd
00000240: fd6e 8abf afdc 493d 285b e33e 677f 4f3f
00000250: 1b41 723e 5062 233f bc13 6cbf 949e 163f
00000260: 3ce9 66be 3cc2 b1be 2bac 4b3f 5dd4 643f
00000270: fbcc a93e a06a 1f3d 9eb9 02bf afc2 f93e
00000280: b0a0 6cbf bc3e f2bd 0c3c bfbe 2bec cfbf
00000290: c7d3 b73e fcca 813e c902 df3e 45ac 31be
000002a0: 5e3b 803f c132 6fbf 4ed6 a53e a647 b83d
000002b0: d32f 433e 3817 0a3d ae42 723f 0a72 5ebd
000002c0: 07f3 833f c5cb c9be 0752 1e3f aa22 e23d
000002d0: 8d5b 19bf 103c fbbd d374 0dbe c492 81be
000002e0: 11a1 813e 0243 be3f aff3 a93e cf77 973f
000002f0: aab0 2d3e 58be 09bf 4fd6 963f f07f 8dbe

linear_relu_stack.0.bias f4 [32]
-0.60756767 1.1442742 -0.24399962 0.0037826826 0.673871 1.0951434 -0.67013043 1.2367656
1.1187792 1.2570381 0.4731892 0.29384783 0.26286325 1.0561858 1.1499035 0.5656864
2.117239 0.75387216 0.49260405 1.5677569 0.8677916 -0.5437316 -0.31687185 0.9920068
0.39268395 -0.18915167 0.6758177 -0.09518482 0.6659819 0.41925517 0.3941137 0.0369249
00000000: 8e89 1bbf 9477 923f 09db 79be e2e6 773b
00000010: cf82 2c3f a92d 8c3f ab8d 2bbf 564e 9e3f
00000020: 2834 8f3f a0e6 a03f db45 f23e 3973 963e
00000030: 0396 863e 1931 873f 0a30 933f d3d0 103f
00000040: d880 0740 c4fd 403f 9936 fc3e 42ac c83f
00000050: 9727 5e3f fe31 0bbf 073d a2be 28f4 7d3f
00000060: df0d c93e fab0 41be 6402 2d3f 42f0 c2bd
00000070: ca7d 2a3f 9da8 d63e 45c9 c93e 903e 173d

linear_relu_stack.2.weight f4 [32, 32]
-0.24046348 -0.27653745 -0.33399546 0.46558097 0.17976375 0.06533957 0.37307703 0.38567227
0.3814592 0.29328915 -0.23388723 0.20151775 -0.15306517 0.5128307 0.12945725 -0.29191798
0.086621255 0.4847322 0.016753836 0.25398505 -0.18013306 -0.18048526 -0.70585173 0.07341721
0.080578506 -0.1919803 -0.087912746 0.0006824534 -0.40829143 -0.22014996 -0.3795826 -0.20796408
-0.26078445 0.22696951 0.23756744 0.27644733 -0.23717262 0.15545452 0.0619137 0.00531283
-1.0450166 0.3559433 0.15668693 -0.18532406 -0.16740863 0.079567045 0.25243458 -0.41412047
-0.28568348 -0.15597549 0.020863725 -0.029702624 1.0784811 -0.3666953 0.4991823 0.7953057
0.41342726 0.96442616 0.07097802 -0.15932052 0.1951773 0.24703526 0.12748402 -0.031276267
0.46550858 0.286815 0.7782914 -1.1330409 -0.31087664 0.11802803 -0.10457452 0.022631265
-0.01542276 -1.0096816 0.25709572 0.04733046 0.37092045 -0.41856635 -0.24070567 0.9268399
0.35586917 0.034480095 -0.38815126 0.5485894 -0.0007495493 0.7332236 -0.1822979 -0.101583466
-0.9944816 -0.14660497 -0.18119267 -0.18908352 0.3118483 0.1073378 0.5614822 -0.4420534
0.3387311 0.31106776 0.31051517 -0.39233038 -0.51186526 0.32399946 -0.4043424 -0.6744884
0.28411788 -0.5805716 -0.11560263 -0.20814118 -0.5455967 -0.115568206 -0.21599361 -0.24836817
0.5145386 0.22817762 -0.019179821 0.5649955 0.08885243 0.31452072 -0.57599545 0.23745357
-0.19542475 0.11655001 -0.51663345 0.5732507 0.20575966 0.7036994 -0.45467633 0.33670613
-0.14457186 -0.39652777 0.061242267 0.3430707 0.20198654 -0.3025715 -0.03460602 0.32247218
0.0098820105 0.3143269 0.59497577 0.19888751 0.05973994 0.28058216 -0.047145054 0.08040572
0.26198295 0.24679247 0.31814 0.19822964 -0.24403805 0.4689534 -0.96464926 -0.52902806
0.15723482 0.029330371 0.122812435 -0.06260017 -0.20672426 0.24255928 0.48959246 -0.32876417
-0.63246065 0.19891839 -1.071761 0.8951885 1.0155488 0.22347291 0.027108198 0.40557158
0.32423857 0.36765963 0.48100537 -0.08044049 -0.33950937 0.8168212 0.34523633 -0.83424026
0.22046062 -0.24850927 0.085506536 0.10965399 -0.63087666 -0.9420307 -1.1341561 0.16067056
0.06307158 0.3282015 0.42913368 -0.57462054 -0.1807402 -0.9852878 -0.37066665 -0.7045439
-0.40577373 -0.008767903 -0.22197984 0.5163353 -0.031118164 -0.10722058 -0.1613895 0.3047873
0.48592448 0.58523816 -0.27156 0.2754096 -0.06922438 0.31692755 0.36879188 0.015856992
0.15883653 0.4423329 -0.486377 0.32671636 0.03530569 -0.6034162 -0.8659457 0.18658106
0.043802463 0.12880011 0.18219253 -0.04478445 -0.77304524 -0.5656056 -0.6300761 -0.19602054
-0.61945903 0.2367193 -0.271603 -0.5224011 -0.3548518 0.3149968 -0.41360027 -0.28500593
-0.39149293 -0.1185267 0.31371522 -0.6511302 0.22472629 -0.08711678 -0.79010135 0.6628461
0.58805 0.2652899 -0.2556657 0.44131675 0.06529431 0.8826907 -1.2031578 0.357797
-0.04962543 0.3218084 -0.42267236 -0.05423953 0.07971107 0.16369101 -0.20204277 0.35613322
00000000: 0f3c 76be 5196 8dbe 7401 abbe a160 ee3e
00000010: fd13 383e c1d0 853d f403 bf3e d676 c53e
00000020: 9f4e c33e ff29 963e 2280 6fbe ab5a 4e3e
00000030: 1ebd 1cbe df48 033f 7190 043e 4676 95be
00000040: 7c66 b13d d22e f83e 573f 893c 540a 823e
00000050: cd74 38be 21d1 38be b3b2 34bf c35b 963d
00000060: 5806 a53d 7c96 44be 990b b4bd ace6 323a
00000070: 930b d1be fe6e 61be a758 c2be 89f4 54be
00000080: 8a85 85be b26a 683e e144 733e 818a 8d3e
00000090: 61dd 72be 782f 1f3e 3899 7d3d 4017 ae3b
000000a0: 1bc3 85bf 333e b63e 8a72 203e 97c5 3dbe
000000b0: 2b6d 2bbe 0cf4 a23d 1b3f 813e 9907 d4be
000000c0: 1b45 92be 0ab8 1fbe 67ea aa3c eb52 f3bc
000000d0: ab0b 8a3f 7dbf bbbe d394 ff3e 2899 4b3f
000000e0: bdac d33e a2e4 763f ed5c 913d eb24 23be
000000f0: 8fdc 473e d0f6 7c3e 2c8b 023e 8b1b 00bd
00000100: 2457 ee3e 6ad9 923e 1b3e 473f 7c07 91bf
00000110: 392b 9fbe aeb8 f13d 2a2b d6bd 3465 b93c
00000120: beaf 7cbc 3f3d 81bf 0da2 833e 96dd 413d
00000130: 49e9 bd3e 544e d6be 8c7b 76be 6145 6d3f
00000140: 7c34 b63e 003b 0d3d c3bb c6be 5b70 0c3f
00000150: 677d 44ba 8bb4 3b3f 4dac 3abe fe0a d0bd
00000160: 5996 7ebf 9d1f 16be 928a 39be 1c9f 41be
00000170: 95aa 9f3e ecd3 db3d 4cbd 0f3f d354 e2be
00000180: 2a6e ad3e 4644 9f3e d8fb 9e3e 87df c8be
00000190: 9a09 03bf 42e3 a53e f805 cfbe 46ab 2cbf
000001a0: e677 913e 57a0 14bf 12c1 ecbd f622 55be
000001b0: 3aac 0bbf 06af ecbd 6e2d 5dbe 3a54 7ebe
000001c0: cdb8 033f 65a7 693e 001f 9dbc 8ca3 103f
000001d0: 43f8 b53d dc08 a13e 7074 13bf 0727 733e
000001e0: 6d1d 48be c6b1 ee3d 1742 04bf 8fc0 123f
000001f0: a9b2 523e a525 343f 56cb e8be bf64 ac3e
00000200: a50a 14be b005 cbbe 2cd9 7a3d f6a6 af3e
00000210: 8fd5 4e3e a7ea 9abe 0bbf 0dbd 131b a53e
00000220: 28e8 213c 75ef a03e 5550 183f 2ba9 4b3e
00000230: deb1 743d 77a8 8f3e 2c1b 41bd c1ab a43d
00000240: a122 863e 2ab7 7c3e 3fe3 a23e b6fc 4a3e
00000250: 1ce5 79be a91a f03e 41f3 76bf 626e 07bf
00000260: 2a02 213e 3f46 f03c 1685 fb3d 8534 80bd
00000270: 86af 53be 7661 783e ddab fa3e c753 a8be
00000280: f1e8 21bf 43b1 4b3e 772f 89bf 132b 653f
00000290: 81fd 813f 15d6 643e 0312 de3c 14a7 cf3e
000002a0: 9902 a63e e23d bc3e 5646 f63e fcbd a4bd
000002b0: 2cd4 adbe 321b 513f d1c2 b03e c590 55bf
000002c0: 6ec0 613e 3779 7ebe 0d1e af3d 4592 e03d
000002d0: 2281 21bf ed28 71bf 072c 91bf d386 243e
000002e0: ac2b 813d 070a a83e 69b7 db3e 551a 13bf
000002f0: f613 39be d23b 7cbf 05c8 bdbe fd5c 34bf
00000300: 93c1 cfbe 40a7 0fbc af4e 63be 8d2e 043f
00000310: 85eb febc 7796 dbbd 4a43 25be 150d 9c3e
00000320: 18cb f83e 2bd2 153f ea09 8bbe 7d02 8d3e
00000330: 83c5 8dbd 5444 a23e 4ad2 bc3e 86e6 813c
00000340: 0ba6 223e 7579 e23e 6806 f9be 5e47 a73e
00000350: b39c 103d 7c79 1abf 9eae 5dbf 1b0f 3f3e
00000360: 366a 333d 2de4 033e ae90 3a3e e66f 37bd
00000370: 4be6 45bf 87cb 10bf ab4c 21bf 9cb9 48be
00000380: de94 1ebf 8b66 723e 8c0f 8bbe 14bc 05bf
00000390: 23af b5be 4347 a13e 6ac3 d3be 4cec 91be
000003a0: c371 c8be 20be f2bd 489f a03e 78b0 26bf
000003b0: a61e 663e 486a b2bd 1544 4abf 48b0 293f
000003c0: 728a 163f 14d4 873e 9de6 82be 45f4 e13e
000003d0: 06b9 853d 05f8 613f 1301 9abf 2b31 b73e
000003e0: 0944 4bbd 12c4 a43e 8368 d8be 452a 5ebd
000003f0: 8f3f a33d 9e9e 273e 4de4 4ebe 1857 b63e

linear_relu_stack.2.bias f4 [32]
0.17969625 -0.20451301 0.3174736 0.49405882 0.21382679 -0.028716309 0.10510513 0.5594614
0.53672373 0.31314003 -0.27832362 0.30413568 0.09130575 0.2644667 0.11458751 0.5941339
0.23311058 0.63132733 0.1255187 0.1984661 0.24926987 0.42073917 -0.20981596 0.3126079
0.3316449 0.1266676 -0.2697504 0.2891814 0.10348314 0.36529687 0.16005811 0.26349717
00000000: 4b02 383e dc6b 51be e68b a23e 47f5 fc3e
00000010: 69f5 5a3e 773e ebbc 5c41 d73d dd38 0f3f
00000020: ba66 093f e453 a03e 6f80 8ebe acb7 9b3e
00000030: 82fe ba3d 2e68 873e dbac ea3d 2919 183f
00000040: 8ab4 6e3e ab9e 213f f987 003e b33a 4b3e
00000050: 9a40 7f3e 206b d73e ffd9 56be 250e a03e
00000060: 5ccd a93e 27b5 013e b91c 8abe 960f 943e
00000070: f8ee d33d 3108 bb3e 46e6 233e 1ae9 863e

linear_relu_stack.4.weight f4 [4, 32]
-1.0284419 -0.62620044 2.0633452 1.1362503 -0.5991544 2.5132349 -1.689616 0.82517725
0.4029343 0.15699452 -1.9403489 0.31744093 0.54341793 -1.103361 0.82856613 1.2404684
-1.8107331 1.4602844 0.4004691 0.18368423 -1.2612062 0.55901635 -1.9401871 -0.057200357
-0.70020115 -1.6648452 -1.5962429 0.11209727 1.37998 1.8923578 0.22147669 0.2779665
0.5853063 0.1954405 -0.18367174 -0.35422796 0.40021694 -1.9567811 0.7446873 0.39853624
-0.018473059 0.5078259 0.088441156 -0.012179997 -0.071967356 0.9318986 -2.5092993 0.16446672
1.2346456 -0.18331295 -0.28772599 0.8623804 1.1641455 0.023498524 0.34333202 -0.18175004
0.6741084 0.8442225 0.4035634 0.934852 0.2127852 -2.116428 -0.4546789 -0.24580432
0.061854243 1.1427306 -0.032352537 -1.5214124 -0.6269205 0.032381084 0.47490498 -1.9748431
0.67375743 0.78494287 0.754991 -1.4986633 -1.5512419 -0.15207647 0.7372378 -2.264665
-0.009489228 -2.78174 1.1850754 0.9390804 -0.14114048 0.5525956 0.9418278 1.2177029
0.61382174 -0.1597879 0.19074646 -2.0278225 -2.7934616 0.096439466 1.5025398 -1.2314748
0.11075819 -1.5923686 -1.7352904 1.1682813 0.801196 0.6426447 0.23385614 1.4402584
-1.4275668 -2.1577792 0.58509356 2.200428 1.1314585 0.34014136 0.78229344 1.2266517
0.03967328 0.6404771 -1.6207484 -1.6274954 0.3156272 -1.5459831 0.21850598 -0.6358377
-1.2164623 0.5410384 0.6285552 0.22837263 1.1002109 0.5229132 -0.36955383 2.351338
00000000: fca3 83bf ac4e 20bf d90d 0440 a670 913f
00000010: 2f62 19bf d7d8 2040 5645 d8bf d13e 533f
00000020: 684d ce3e 2cc3 203e 5a5d f8bf 9e87 a23e
00000030: 701d 0b3f ef3a 8dbf e91c 543f abc7 9e3f
00000040: 1ac6 e7bf 99ea ba3f 490a cd3e b817 3c3e
00000050: 346f a1bf b21b 0f3f 0d58 f8bf ec4a 6abd
00000060: 6240 33bf a619 d5bf b051 ccbf 4193 e53d
00000070: 2fa3 b03f c838 f23f c9ca 623e a051 8e3e
00000080: a2d6 153f 8e21 483e 7214 3cbe 5e5d b5be
00000090: 3ce9 cc3e ce77 fabf d4a3 3e3f f10c cc3e
000000a0: d054 97bc e100 023f a320 b53d 9c8e 47bc
000000b0: 9f63 93bd e890 6e3f 5c98 20c0 f769 283e
000000c0: de08 9e3f 64b6 3bbe d250 93be f6c4 5c3f
000000d0: b802 953f fa7f c03c 37c9 af3e af1c 3abe
000000e0: 5e92 2c3f f71e 583f dd9f ce3e 7652 6f3f
000000f0: 5de4 593e 8e73 07c0 accb e8be 21b4 7bbe
00000100: e05a 7d3d ff44 923f 1884 04bd a4bd c2bf
00000110: dd7d 20bf 07a2 043d bf26 f33e a9c7 fcbf
00000120: 5e7b 2c3f 04f2 483f 1747 413f 33d4 bfbf
00000130: 188f c6bf efb9 1bbe 9ebb 3c3f 45f0 10c0
00000140: b578 1bbc 0708 32c0 8db0 973f 9367 703f
00000150: 2187 10be e876 0d3f a01b 713f b0dd 9b3f
00000160: 6c23 1d3f 709f 23be 0a53 433e d8c7 01c0
00000170: 13c8 32c0 0e82 c53d 3953 c03f f7a0 9dbf
00000180: 31d5 e23d bcd2 cbbf ff1d debf 3e8a 953f
00000190: 2e1b 4d3f 5d84 243f fc77 6f3e 635a b83f
000001a0: 82ba b6bf 0e19 0ac0 b1c8 153f d0d3 0c40
000001b0: a2d3 903f 0227 ae3e 6244 483f ec02 9d3f
000001c0: 7380 223d 4ff6 233f af74 cfbf c551 d0bf
000001d0: e399 a13e c6e2 c5bf 08c0 5f3e 42c6 22bf
000001e0: 09b5 9bbf 7e81 0a3f fee8 203f 84da 693e
000001f0: b6d3 8c3f a4dd 053f 2936 bdbe 527c 1640

linear_relu_stack.4.bias f4 [4]
0.50794154 0.1331115 -0.30552858 -0.23812129
00000000: 7508 023f 624e 083e 3e6e 9cbe 11d6 73be
