wlf/calibration_tools/calibration_models/20240201-144431_20240131_model.ckpt (torch, 8335 bytes, 6 tensors)

linear_relu_stack.0.weight f4 [32, 6]
0	0xbe502d85	-0.20329864
1	0x3f585d93	0.8451778
2	0xbdd7043f	-0.10498857
3	0xbf855217	-1.0415677
4	0x3f46ed75	0.7770608
5	0x3e135267	0.14386903
6	0xbf9dad72	-1.2318556
7	0x3f103d61	0.56343657
8	0xbee52b86	-0.44759768
9	0xbecaf048	-0.39636445
10	0x3efdca1b	0.49568257
11	0xbf5743e0	-0.84087944
12	0xbeccf892	-0.40033394
13	0x3ef6ad17	0.48178932
14	0x3f27586e	0.6536931
15	0xbfb17802	-1.3864748
16	0xbd74e663	-0.059790026
17	0x3f23bdf0	0.63961697
18	0xbf13e465	-0.5777038
19	0xbed8b4a6	-0.42325324
20	0xbedf47f7	-0.43609592
21	0x3e813f95	0.25243822
22	0xbebc67c8	-0.3679793
23	0xbd2e0c48	-0.04249218
24	0x3f9a9c92	1.2079031
25	0x3f301392	0.6877986
26	0x3ed1ca71	0.40974763
27	0x3f742c7f	0.95380396
28	0x3f4619ed	0.7738331
29	0x3dbc06ea	0.09181006
30	0x3e14f90f	0.14548133
31	0x3ea0c0cb	0.3139709
32	0xbeafd1c4	-0.34339726
33	0xbf3b45e0	-0.73153496
34	0x3f6960d3	0.9116337
35	0x3cbcf023	0.023063725
36	0xbe2a94da	-0.16658345
37	0x3e7ea556	0.24867758
38	0xbf327e51	-0.69723994
39	0x3f1988d1	0.5997439
40	0x3f4798d4	0.7796757
41	0x3e2da6a3	0.16958098
42	0x3e4e9cf6	0.20177063
43	0x3e1b80bc	0.15185827
44	0xbeb005eb	-0.34379515
45	0xbf8bc60a	-1.0919812
46	0xbee7d6cd	-0.45281067
47	0xbe4e0120	-0.20117617
48	0xbf2aa2d8	-0.6665473
49	0xbfb638d0	-1.4236088
50	0x3f33cc6b	0.7023379
51	0x3e25cb8d	0.1619093
52	0x3f365eba	0.7123829
53	0xbe471110	-0.19440103
54	0xbe8f7302	-0.28017431
55	0x3dda1fb3	0.106505774
56	0xbe770b8b	-0.24125497
57	0x3de7f22b	0.11325487
58	0x3f558275	0.83402187
59	0x3f0c86bc	0.5489309
60	0x3f5282f7	0.82231086
61	0x3f357f31	0.70897204
62	0xbf5e2dc9	-0.8678861
63	0x3e92b507	0.28653738
64	0xbebca1f7	-0.3684232
65	0xbfa25d0e	-1.2684648
66	0x3e8992b3	0.26869735
67	0xbf989034	-1.1919007
68	0x3f40ee90	0.7536402
69	0xbf0e179d	-0.5550478
70	0x3e874881	0.26422504
71	0x3f83ed70	1.0306835
72	0x3e00a690	0.12563539
73	0x3d929d3c	0.07158896
74	0x3ba79f9d	0.005115463
75	0x3e05eb1f	0.13077973
76	0x3f4e41a6	0.8056892
77	0xbe474384	-0.19459349
78	0x3e22c826	0.15896663
79	0xbe41c360	-0.18922186
80	0x3f2bb90a	0.6707922
81	0x3f890f12	1.0707724
82	0xbe99a026	-0.30004996
83	0x3d5a4553	0.05328877
84	0x3e1f7502	0.15571979
85	0x3f64bcf5	0.89350826
86	0x3e90faad	0.2831625
87	0xbf8b78b4	-1.0896211
88	0xbf9d4e2d	-1.2289482
89	0x3e3a4d3d	0.18193527
90	0x3fa41cf8	1.282134
91	0xbef9b21b	-0.48768696
92	0x3f3a9861	0.7288876
93	0xbea3286a	-0.3186677
94	0x3e78bf97	0.24291836
95	0xbe06658c	-0.13124675
96	0x3f98b8fe	1.1931455
97	0x3eca411f	0.39502808
98	0x3f9c8fd9	1.2231399
99	0x3f7b54ba	0.9817616
100	0xbf228006	-0.634766
101	0xbf09b847	-0.5379681
102	0xbe7beb17	-0.24601398
103	0x3f837798	1.0270872
104	0xbf87461e	-1.0568273
105	0x3f882688	1.0636759
106	0x3f1d46f7	0.6143641
107	0xbe4c0c8d	-0.19926663
108	0x3e84cfcc	0.25939786
109	0x3e1fea42	0.15616706
110	0xbe6ae8a6	-0.22940311
111	0xbe64bf13	-0.22338514
112	0x3f4a52e5	0.79032737
113	0xbd4fb00e	-0.05070501
114	0x3e669d25	0.22520883
115	0xbf4fedbd	-0.81222135
116	0x3eb2e2b7	0.34938595
117	0x3c1677ff	0.009183883
118	0x3f61a9e4	0.8814986
119	0x3f3fe43f	0.7495765
120	0x3e010d88	0.12602818
121	0xbdcff414	-0.10153976
122	0x3f9d0b76	1.2269123
123	0xbf3e59c5	-0.7435573
124	0x3f5f054b	0.8711745
125	0xbe071038	-0.1318978
126	0x3d9208dc	0.07130596
127	0xbfaf07fb	-1.367431
128	0x3e021eb3	0.12707023
129	0x3fb28961	1.3948175
130	0xbef9673b	-0.4871157
131	0xbeb00b22	-0.34383494
132	0x3f0fb563	0.5613615
133	0x3f765bb3	0.9623367
134	0xbfbc8342	-1.4727557
135	0x3d5b2e5c	0.05351101
136	0xbf1a7f6f	-0.603507
137	0x3dbad32c	0.09122309
138	0x3f752d46	0.95772207
139	0xbf66de32	-0.90182793
140	0x3e1b35de	0.15157267
141	0xbea6c26a	-0.325702
142	0xbf820c7e	-1.0160062
143	0xbd811348	-0.06302506
144	0xbe834936	-0.25641793
145	0xbe281b6d	-0.16416712
146	0xbe50e270	-0.20398879
147	0x3cc5a5c0	0.024126887
148	0x3f5039d8	0.8133826
149	0xbef2680e	-0.47345012
150	0xbdb27c17	-0.087150745
151	0xbfee1f26	-1.8603256
152	0x3e14e0bc	0.14538854
153	0x3f8fd18a	1.1235821
154	0xbea79e8d	-0.32738152
155	0x3d3e596d	0.046472
156	0x3eeb53a7	0.4596226
157	0x3edf5ed4	0.43627036
158	0x3c3dcc04	0.011584286
159	0xbfc51436	-1.5396793
160	0x3f2482b1	0.6426192
161	0xbf3b7fd8	-0.7324195
162	0xbd4e021c	-0.05029498
163	0xbeaf0a6b	-0.34187636
164	0xbf383eac	-0.7197063
165	0xbeeb2255	-0.4592463
166	0xbf6a01b2	-0.91408837
167	0x3f08a881	0.53382117
168	0x3d6fdb6b	0.058558863
169	0xbf207a3c	-0.62686515
170	0xbd111935	-0.03542443
171	0x3f763f35	0.96190196
172	0xbf928a73	-1.1448501
173	0x3e4b3a5f	0.19846486
174	0xbfcecc21	-1.6156045
175	0x3f1ab87c	0.6043775
176	0xbf427d2c	-0.7597225
177	0x3f9be339	1.2178718
178	0x3f29e1bb	0.6636006
179	0xbd28ad07	-0.041180637
180	0xbf906b67	-1.1282777
181	0xbf892427	-1.0714158
182	0xbedca916	-0.43097752
183	0x3da2737e	0.07932185
184	0xbdeba8ac	-0.11506781
185	0x3f18b214	0.59646726
186	0xb9c212c5	-0.00037016548
187	0x3e1ba993	0.15201406
188	0xbec2ba7b	-0.38032898
189	0x3ee2d801	0.44305423
190	0x3f88ec24	1.0697064
191	0x3de79717	0.11308115

linear_relu_stack.0.bias f4 [32]
0	0x3f078fb2	0.52953637
1	0x3eeb6f73	0.45983467
2	0xbd7cf11e	-0.061753385
3	0x3f6fd0a3	0.9367773
4	0xbe709c4e	-0.23497126
5	0xbe7a9b50	-0.2447331
6	0x3c005cc9	0.007834622
7	0x3f4357a1	0.76305586
8	0xbecd065e	-0.4004392
9	0x3ed11ab6	0.4084069
10	0xbe3df50c	-0.18550509
11	0x3ed3896a	0.41315776
12	0x3eab4d69	0.33457497
13	0xc00bb6d2	-2.1830335
14	0x3e21fc2c	0.15818852
15	0x3f8de0fd	1.1084286
16	0x3f0c1636	0.5472139
17	0x3f4fab42	0.81120694
18	0xbd29c992	-0.041451998
19	0xbe888294	-0.26662123
20	0x3efa3385	0.4886743
21	0xbf4f6da7	-0.8102669
22	0x3f036280	0.51322174
23	0xbdf5e4f2	-0.120065585
24	0x3f04572c	0.51695514
25	0xbed8fbf2	-0.4237972
26	0x3bed7fa7	0.0072478834
27	0x3f8a6f33	1.0815185
28	0x3f4dc03d	0.8037146
29	0xbfa6c570	-1.3029003
30	0x3e81a306	0.2531969
31	0x3db225f5	0.08698646

linear_relu_stack.2.weight f4 [32, 32]
0	0x3f241142	0.64088833
1	0xbe2eecac	-0.1708247
2	0x3e924312	0.28566796
3	0xbef977bc	-0.48724163
4	0xbe0bd2ca	-0.13654628
5	0x3f236833	0.6383087
6	0x3f031bcf	0.5121431
7	0xbe846826	-0.2586071
8	0x3efdfe06	0.49607867
9	0x3f27ae10	0.65499973
10	0xbefdf1fa	-0.49598676
11	0x3f024d89	0.5089956
12	0x3eeb4ea3	0.45958433
13	0xbf12bbf4	-0.57318044
14	0xbe89f9a3	-0.2694827
15	0x3ed94b10	0.4244008
16	0x3eb2f5dd	0.34953204
17	0xbf2b9c5c	-0.6703546
18	0x3ed66cad	0.41879788
19	0xbe1b5504	-0.1516915
20	0x3e8e3814	0.2777716
21	0x3e9b9cd0	0.30393076
22	0xbf8fc321	-1.1231424
23	0x3c988f9a	0.018623162
24	0x3ec4e606	0.38456744
25	0xbde62b29	-0.11238701
26	0x3f47f163	0.781027
27	0xbe473097	-0.1945213
28	0xbe798ae0	-0.24369383
29	0x3eea5120	0.45765018
30	0xbe95d5f7	-0.29264805
31	0x3e84116c	0.25794542
32	0xbf50ad6b	-0.81514615
33	0x3f03ce1a	0.5148636
34	0x3e2451b1	0.16046788
35	0x3e72e2ee	0.2371938
36	0x3f014d98	0.50509024
37	0xbe9db85b	-0.30804715
38	0xbd244a6e	-0.040110044
39	0xbe6c407b	-0.23071472
40	0xbf1fa136	-0.62355363
41	0xbe998d2e	-0.29990524
42	0xbe7a138c	-0.24421519
43	0xbe2cd526	-0.16878185
44	0x3eef155d	0.46695986
45	0xbf66072e	-0.89854705
46	0x3e86037a	0.26174527
47	0xbe8fdcdb	-0.28098187
48	0x3f2bd5cf	0.6712312
49	0x3f0c6b9f	0.54851717
50	0xbd487f9b	-0.04894982
51	0xbea97996	-0.33100575
52	0xbf0f9537	-0.5608706
53	0xbf0b0a3f	-0.5431251
54	0x3f1b6323	0.60698146
55	0x3f0d5d2c	0.55220294
56	0x3d7446dd	0.059637893
57	0x3f89094d	1.0705963
58	0xbf16b876	-0.58875215
59	0x3f71dff1	0.9448233
60	0xbf4adeb1	-0.7924605
61	0xbf8669e9	-1.0501071
62	0xbe6c8134	-0.23096162
63	0xbf4b9ca6	-0.795359
64	0x3e1c8f92	0.15289143
65	0xbf029131	-0.51002795
66	0x3e8a6736	0.2703187
67	0x3e999c47	0.30002043
68	0x3e4cebb2	0.20011786
69	0xbe7c38ad	-0.24630995
70	0xbe40a67e	-0.18813512
71	0x3f083d3d	0.5321844
72	0xbf26a7ad	-0.650996
73	0x3dacd183	0.08438399
74	0xbe4e2c87	-0.20134173
75	0xbea1a652	-0.31572205
76	0xbdc5b1e3	-0.0965307
77	0x3f6d62c8	0.92728853
78	0x3d8d1cbe	0.06890248
79	0x3f470271	0.777381
80	0x3e81e11f	0.25367066
81	0x3ea5cb07	0.3238146
82	0xbe7dcc93	-0.2478507
83	0x3eaaa03c	0.33325374
84	0xbf105505	-0.5637973
85	0xbcd69fa2	-0.026199166
86	0xbe8fd8ed	-0.2809519
87	0x3ea45541	0.32096294
88	0x3ddabd26	0.106806085
89	0xbf04c2b4	-0.51859593
90	0xbf011824	-0.5042746
91	0x3ef3203f	0.4748554
92	0x3eaea709	0.34111813
93	0xbf26f2fa	-0.652145
94	0x3f739057	0.9514212
95	0x3f0d4bee	0.55193985
96	0x3f184c67	0.5949158
97	0x3e8dd079	0.27698115
98	0xbd280b26	-0.041026257
99	0xbe447790	-0.19186234
100	0xbe0949fd	-0.1340713
101	0x3f92671c	1.1437716
102	0x3f0da6ca	0.55332625
103	0xbf8a89cb	-1.0823301
104	0x3f12c683	0.57334155
105	0x3f08a15f	0.5337123
106	0x3e9ed1b5	0.3101937
107	0x3f3f721a	0.7478348
108	0x3f54135f	0.8284206
109	0xbf20eaea	-0.6285845
110	0xbf40b28d	-0.75272447
111	0xbb9a5c81	-0.0047107344
112	0x3e617429	0.22016968
113	0xbf73f24e	-0.952916
114	0x3f6d0d32	0.9259826
115	0x3c822dd7	0.015890999
116	0x3ecd1388	0.40053964
117	0x3f41e926	0.7574638
118	0xbf160464	-0.5860045
119	0x3e434aaa	0.19071451
120	0x3db2eac9	0.08736188
121	0x3fa12eb1	1.2592374
122	0x3f64e050	0.89404774
123	0x3f463105	0.7741855
124	0xbd89e808	-0.067337096
125	0x3ef233a3	0.4730502
126	0xbf40a2f8	-0.7524867
127	0xbe727895	-0.23678811
128	0xbf0d12fb	-0.55107087
129	0xbd828dee	-0.06374727
130	0x3f03bc35	0.51459056
131	0x3f215a63	0.63028544
132	0xbfa6f629	-1.3043872
133	0xbe4b743d	-0.1986856
134	0xbf123765	-0.57115775
135	0x3e85107d	0.25989142
136	0x3cc3e3dd	0.023912365
137	0x3a7f42f7	0.00097374566
138	0x3e89bfc9	0.26904133
139	0xbd9a38be	-0.07530354
140	0xbeaf6e10	-0.3426366
141	0xbebc3b5f	-0.36764047
142	0xbf359638	-0.7093234
143	0xbef71774	-0.4826008
144	0xbf473009	-0.7780767
145	0x3eccdd29	0.40012482
146	0xbc17d14b	-0.009266208
147	0xbf4d09cd	-0.8009308
148	0x3f594a4d	0.84879
149	0x3e835c54	0.25656378
150	0x3f201125	0.6252616
151	0x3f1afbe2	0.6054059
152	0xbe9fc5d0	-0.31205606
153	0x3f64c961	0.8936978
154	0xbe349ef7	-0.17638765
155	0x3e765b1a	0.2405819
156	0x3ee39224	0.44447434
157	0x3db23fae	0.08703552
158	0x3ed8cfaa	0.42345935
159	0xbf223157	-0.63356537
160	0x3e15ff7e	0.14648244
161	0xbf0de7bb	-0.5543172
162	0xbd4b7f05	-0.049681682
163	0x3faa8658	1.3322248
164	0xbf3f4ac7	-0.74723476
165	0xbf7a66bb	-0.97813004
166	0xbdbd1908	-0.0923329
167	0x3f0b878d	0.5450371
168	0x3eec2a77	0.46126148
169	0xbf53eee1	-0.82786375
170	0x3f87076d	1.0549141
171	0xbe8026b2	-0.25029522
172	0xbefcdabc	-0.4938563
173	0xbf227aac	-0.6346843
174	0x3f12a3fb	0.57281464
175	0xbec1d9c7	-0.37861463
176	0x3dd334b6	0.10312788
177	0xbf92ed9b	-1.1478761
178	0xbf6991e8	-0.9123826
179	0x3f21eddf	0.6325359
180	0xbf31367d	-0.6922377
181	0x3f779435	0.9671052
182	0xbf3d5095	-0.73951083
183	0xbf9f5446	-1.2447593
184	0xbe89afb6	-0.2689187
185	0x3d0cc3d0	0.03436643
186	0x3d277cd6	0.040890537
187	0x3f84c5e1	1.0372888
188	0x3eed8259	0.4638851
189	0xbf303241	-0.6882668
190	0xbfa44273	-1.2832779
191	0xbf638237	-0.8887057
192	0xbd1a6bc3	-0.037700426
193	0x3ee91503	0.45523843
194	0x3e3d8b8e	0.18510267
195	0xbd0eb9fa	-0.03484533
196	0x3e21d6d0	0.158046
197	0xbe003332	-0.1251953
198	0xbe9cee32	-0.3065048
199	0x3f0525b5	0.5201066
200	0x3d81d976	0.063403055
201	0xbdecba35	-0.11558954
202	0xbe9d9f46	-0.30785578
203	0xbf22cd1d	-0.6359423
204	0xbd0c1904	-0.034203544
205	0x3f2efabc	0.6835134
206	0x3e2613ff	0.16218565
207	0x3dda712e	0.106661186
208	0x3ed837c4	0.42230046
209	0x3e7974c5	0.2436095
210	0xbe951df8	-0.29124427
211	0x3e78ae46	0.2428523
212	0x3c70db55	0.01470073
213	0x3cce1816	0.02515797
214	0xbd3f80c8	-0.046753675
215	0x3e28610c	0.1644327
216	0x3ea9fc89	0.33200482
217	0x3e0eed39	0.13957681
218	0xbe849295	-0.25893083
219	0x3ddb094c	0.106951326
220	0x3d435758	0.04769072
221	0xbebc32ee	-0.36757606
222	0x3f055237	0.52078575
223	0xbd0580d6	-0.03259357
224	0x3ef8e32c	0.48610818
225	0xbed8a98a	-0.42316848
226	0xbf294611	-0.6612254
227	0xbee75170	-0.4517932
228	0x3ad34ead	0.001612147
229	0x3eeb6083	0.4597207
230	0x3eca3a6a	0.3949769
231	0xbe92e804	-0.2869264
232	0x3f120161	0.57033354
233	0x3f0c1cb2	0.54731286
234	0xbe476242	-0.19471076
235	0x3ef9404b	0.48681864
236	0x3e2a15ed	0.16609927
237	0x3e1080c9	0.14111628
238	0xbf6730f4	-0.9030907
239	0xbe559aee	-0.20859882
240	0xbef34c63	-0.47519216
241	0xbe95705d	-0.2918729
242	0x3ecdabe7	0.40170214
243	0x3e744f7b	0.23858444
244	0x3dc6705e	0.09689401
245	0xbe4741cf	-0.19458698
246	0x3e807f00	0.25096893
247	0xbdafd6a7	-0.085858636
248	0x3e97af32	0.2962585
249	0xbeab21b6	-0.33424157
250	0x3e7a8b69	0.24467243
251	0xbdb82002	-0.0899048
252	0xbf3dc6dd	-0.74131566
253	0x3f24b8f5	0.6434472
254	0xbe4e95e0	-0.2017436
255	0x3ec4d78b	0.38445696

linear_relu_stack.2.bias f4 [32]
0	0xbe186fbb	-0.14886372
1	0x3e2df9a7	0.16989766
2	0x3e8c6c40	0.27426338
3	0xbc57e852	-0.013177948
4	0x3e916529	0.28397492
5	0x3f71d431	0.94464403
6	0x3e1b77e4	0.15182453
7	0xbeb3d69f	-0.3512468
8	0x3cf0dd87	0.029402507
9	0x3eae222b	0.34010443
10	0xbdcfa1a5	-0.10138253
11	0x3e774d89	0.24150671
12	0xbe03cc30	-0.1287086
13	0xbe72bc2b	-0.23704593
14	0x3dba95ad	0.0911058
15	0x3da25755	0.079268135
16	0x3e14e4ac	0.14540356
17	0x3ed344f3	0.41263542
18	0x3d32c2ea	0.043642916
19	0x3e068bfa	0.13139334
20	0x3e2f5422	0.17121938
21	0xbd697d16	-0.057004057
22	0x3d922829	0.07136566
23	0x3e50807e	0.20361516
24	0x3e8dce5e	0.27696508
25	0xbe1f1072	-0.15533617
26	0x3df8a9a1	0.12141729
27	0xbeac74dc	-0.33682907
28	0x3e817ef6	0.25292176
29	0x3e5f62c7	0.21815024
30	0xbd41a8fd	-0.0472803
31	0xbe7f526a	-0.24933782

linear_relu_stack.4.weight f4 [4, 32]
0	0x3f2e1665	0.6800292
1	0x3f39cc81	0.72577673
2	0xbee8fa3a	-0.45503408
3	0x3f54fef7	0.83201545
4	0xbe5cad39	-0.21550454
5	0x3f4c0125	0.79689246
6	0xbeed81cd	-0.46388093
7	0x3f2ebdf0	0.6825857
8	0xbf0bcc03	-0.5460817
9	0xbf720678	-0.9454112
10	0x3ed5a8a4	0.41730225
11	0x3e86b18d	0.26307335
12	0x3e9f81de	0.31153768
13	0x3e160d60	0.1465354
14	0x3e84aea5	0.25914493
15	0x3dbc6a99	0.092000194
16	0x3f2633cf	0.64922804
17	0x3d0adbc4	0.03390099
18	0x3f4e535c	0.80595946
19	0x3fb2074f	1.390848
20	0x3eabd83d	0.33563414
21	0x3ebcfb57	0.36910507
22	0x3f1e0254	0.617223
23	0xbfb265b9	-1.3937293
24	0xbee2b5b2	-0.44279248
25	0x3f0665f0	0.52499294
26	0xbed0caaa	-0.4077962
27	0x3f1f0b3b	0.6212651
28	0x3d771b59	0.060328815
29	0xbea9fe4d	-0.3320183
30	0x3efa8033	0.48925933
31	0x3ed98276	0.42482346
32	0xbeef3f07	-0.46727774
33	0xbfb03606	-1.3766487
34	0x3fa675c1	1.3004686
35	0xbf4273a0	-0.7595768
36	0xbfaed876	-1.3659809
37	0x3fe723bf	1.8057784
38	0x3f204ea1	0.6261998
39	0xbf66ae30	-0.9010954
40	0x3e346851	0.17617919
41	0x3e3a41ba	0.18189135
42	0x3f82284a	1.0168545
43	0x3ea90327	0.33010218
44	0xbfb2580d	-1.3933121
45	0x3fcd7304	1.6050725
46	0x3f71fa38	0.9452243
47	0xbf8afa15	-1.0857569
48	0xbedd205a	-0.43188745
49	0x3f6d17b0	0.9261427
50	0x3f0c0c02	0.5470582
51	0xbf8ac294	-1.084063
52	0x3ec98e1d	0.39366236
53	0x3ee8566c	0.45378435
54	0xbfb140e8	-1.3847933
55	0x3f27af8a	0.65502226
56	0x3f3ac798	0.72960806
57	0xbf6ca12f	-0.92433447
58	0x3d89a14f	0.0672022
59	0xbf854508	-1.0411692
60	0xbf739028	-0.9514184
61	0xbfaff048	-1.3745203
62	0x3f055df2	0.52096474
63	0x3f838394	1.027453
64	0xbf878091	-1.058611
65	0xbe97643b	-0.29568657
66	0x3f1fb725	0.6238883
67	0xbfbce537	-1.4757451
68	0x3fb9bedd	1.4511372
69	0xbfd4e823	-1.6633343
70	0x3f1551bb	0.58327836
71	0xbd5c5aab	-0.053797405
72	0x3f36df00	0.7143402
73	0xbc98ca84	-0.018651254
74	0xbf7da5d1	-0.9908114
75	0x3f950eac	1.1645103
76	0xbfa9126c	-1.3208747
77	0xbf85bfc4	-1.0449147
78	0x3f3f3c9e	0.7470187
79	0x3f8a1a56	1.0789287
80	0x3f3b14a0	0.73078346
81	0x3f98ac05	1.1927496
82	0x3e02ab5b	0.1276068
83	0xbf7d4da7	-0.98946613
84	0x3f3fae0d	0.74874955
85	0x3f4aa223	0.7915365
86	0xbed63a27	-0.41841242
87	0xbfde2c34	-1.735724
88	0x3f2099f5	0.6273492
89	0xbe7aeb9a	-0.24503937
90	0x3f1e9ca5	0.6195777
91	0xbe6d3206	-0.23163614
92	0x3f2b0042	0.6679727
93	0x3f2f7c31	0.68548876
94	0xbf8de7a2	-1.1086314
95	0xbf5d73a2	-0.86504567
96	0x3eab5ce8	0.3346932
97	0x3f1c687a	0.6109692
98	0x3d91d02c	0.07119784
99	0x3f8d6933	1.1047729
100	0x3d19a919	0.03751478
101	0xbf739d34	-0.9516175
102	0x3e9ce0db	0.306403
103	0x3d46cc3e	0.048534624
104	0x3e6212e3	0.22077517
105	0x3f5f0090	0.87110233
106	0x3e501a9a	0.20322648
107	0xbf30600b	-0.6889655
108	0x3f45e07e	0.7729567
109	0x3c1ffabb	0.009764369
110	0xbf2f9a4b	-0.6859481
111	0x3e853558	0.2601726
112	0xbf7c6620	-0.9859333
113	0xbf4f5621	-0.809908
114	0xbf680b18	-0.9064193
115	0x3f4e10f1	0.804946
116	0xbf0642ad	-0.5244549
117	0xbf184b05	-0.5948947
118	0xbe2727c5	-0.16323765
119	0x3f9591ce	1.1685121
120	0x3e9f1bbb	0.31075844
121	0xbe325e0c	-0.17418689
122	0x3e804547	0.25052854
123	0x3e1afab0	0.15134692
124	0x3ed1967e	0.4093513
125	0x3f3aac03	0.7291872
126	0xbd628a19	-0.05530748
127	0x3d5045c4	0.050847784

linear_relu_stack.4.bias f4 [4]
0	0xbe54e43c	-0.2079019
1	0x3e75f5d8	0.24019563
2	0x3dc4464a	0.09583719
3	0xbd723d52	-0.05914051
