wlf/calibration_tools/calibration_models/XY and Yaw Filtered - 15 threshold/20240201-140737_20240131_model.ckpt (torch, 8335 bytes, 6 tensors)

linear_relu_stack.0.weight f4 [32, 6]
-0.27678287 -0.61218715 0.17704968 -1.0604069 -1.0391057 -0.5333695 -0.38501048 -0.34432623
-1.0208454 -0.060279295 -0.8098107 -0.33915296 -0.501322 -1.3884023 -0.6895325 1.6811944
-0.027312381 0.45857882 -0.1350074 0.06903879 0.38630256 -0.49148136 1.2053051 -0.49504033
-0.53950024 -0.25932157 -0.4982319 1.1854972 1.3557265 0.5171627 0.32116464 -1.613604
-0.91898906 0.44688225 -1.0163944 0.29845276 1.0118408 0.9831087 0.3415717 0.16511956
-1.4361694 0.03120885 0.5348758 -0.12837079 0.3677802 -0.4150625 1.4368892 0.2192902
0.4091452 -0.62182194 -1.0948775 -0.5515271 -0.81235516 0.7453717 0.5742467 0.69026476
-0.4822632 -0.42382187 -0.9457461 0.08534569 0.3982552 -1.2996826 -1.4294984 -2.190659
0.75275797 -0.10907434 -0.04694943 0.49627703 -0.050947133 -0.85716426 1.1193604 -0.8480984
0.13668896 1.0932856 -1.3876805 -0.7830708 -0.08834129 0.05673805 0.3974703 -0.42361784
1.4643968 -0.66251063 -1.2678711 0.6128033 0.072512925 1.0253056 -0.7023414 -0.16939683
0.6500242 0.109938264 0.28541803 0.13298005 -1.2893673 -0.37900874 -0.53397566 -0.5552749
0.10036293 0.8864147 -1.0317792 0.16371389 1.0793239 0.18563321 -1.5447751 -0.013649712
-1.2213075 -0.5406632 -0.10037097 -0.43067983 0.7825054 0.011673993 0.8166491 -0.68555593
1.5717812 -0.0027949507 0.3028671 0.2525416 0.32466602 -0.47344783 0.96652484 -0.23259005
1.1158307 -0.00054471084 -0.4868563 1.209509 0.38419175 0.5662331 1.1238681 -0.32605043
0.34753096 0.3659947 1.3463877 0.14737135 -0.5389825 1.3828535 1.4071006 1.3306953
-0.23607396 0.1842648 -0.33009672 0.0093712965 -0.87829554 0.7702984 -0.21651179 -1.2847344
-0.7102232 0.6626096 0.41310117 -1.3597515 -0.7713397 0.3259618 -0.12906992 0.28364506
0.29386705 0.23308079 0.75529593 -0.7309745 -1.1384718 0.36474627 1.2309917 -0.39645484
0.10428697 0.68406737 1.2606415 1.1398139 0.27196866 -0.50373036 0.83705074 0.28696153
-0.019239217 0.11284372 0.21692568 -0.074249215 2.1039143 0.14517859 0.2888424 -1.8277493
1.3627664 0.58377194 -0.2902452 -0.33225596 0.6551669 0.49420494 -0.9388245 1.3159009
-0.32354444 -0.05321856 -1.2846794 -1.1306123 -0.17539228 -0.77481127 -0.19702862 -0.31753123
00000000: 7cb6 8dbe 4cb8 1cbf 834c 353e 6abb 87bf
00000010: 6a01 85bf e78a 08bf 1820 c5be 874b b0be
00000020: 10ab 82bf 6ce7 76bd c14f 4fbf 75a5 adbe
00000030: a356 00bf 2bb7 b1bf 3485 30bf 6131 d73f
00000040: 37be dfbc d8ca ea3e 613f 0abe 3664 8d3d
00000050: 73c9 c53e 72a3 fbbe 7047 9a3f ed75 fdbe
00000060: b01c 0abf ccc5 84be 4018 ffbe 5fbe 973f
00000070: 7288 ad3f c664 043f b16f a43e 938a cebf
00000080: de42 6bbf c0cd e43e 3619 82bf cdce 983e
00000090: 0084 813f 03ad 7b3f 7ce2 ae3e 1a15 293e
000000a0: 66d4 b7bf b4a9 ff3c 9fed 083f a273 03be
000000b0: b04d bc3e 1283 d4be fceb b73f 9c8d 603e
000000c0: 7b7b d13e b92f 1fbf f224 8cbf e130 0dbf
000000d0: 82f6 4fbf aed0 3e3f d501 133f 31b5 303f
000000e0: 34eb f6be 2eff d8be 6b1c 72bf b9c9 ae3d
000000f0: 1be8 cb3e 005c a6bf cef9 b6bf c233 0cc0
00000100: bfb4 403f 5e62 dfbd 0c4e 40bd 0618 fe3e
00000110: f1ad 50bd 1e6f 5bbf 3447 8f3f fa1c 59bf
00000120: 31f8 0b3e c8f0 8b3f 849f b1bf 5477 48bf
00000130: 47ec b4bd 2866 683d 3a81 cb3e 70e4 d8be
00000140: 5b71 bb3f 4c9a 29bf 9a49 a2bf ade0 1c3f
00000150: a881 943d 373d 833f a5cc 33bf 5d76 2dbe
00000160: fc67 263f 5027 e13d 5022 923e ec2b 083e
00000170: fd09 a5bf 6f0d c2be a1b2 08bf 7f26 0ebf
00000180: 148b cd3d 13ec 623f 5711 84bf 9da4 273e
00000190: 4927 8a3f a216 3e3e 31bb c5bf 0ba3 5fbc
000001a0: ce53 9cbf e768 0abf 4c8f cdbd 1182 dcbe
000001b0: 4652 483f 4744 3f3c ea0f 513f 9880 2fbf
000001c0: 2030 c93f 7e2b 37bb 6611 9b3e 224d 813e
000001d0: a03a a63e c167 f2be 2c6e 773f 162c 6ebe
000001e0: 8ad3 8e3f edca 0eba 3b45 f9be 31d1 9a3f
000001f0: c8b4 c43e a7f4 103f e9da 8f3f 15f0 a6be
00000200: 94ef b13e a863 bb3e 6f56 ac3f 84e8 163e
00000210: c2fa 09bf 5801 b13f df1b b43f 3954 aa3f
00000220: 5fbd 71be e9af 3c3e 7002 a9be 118a 193c
00000230: fad7 60bf 4732 453f 44b5 5dbe 2d72 a4bf
00000240: 30d1 35bf c8a0 293f ff81 d33e 560c aebf
00000250: 8576 45bf 77e4 a63e e82a 04be ed39 913e
00000260: be75 963e bbac 6e3e 135b 413f 2521 3bbf
00000270: 72b9 91bf 06c0 ba3e 2391 9d3f 21fc cabe
00000280: 6894 d53d 0a1f 2f3f b35c a13f 6ce5 913f
00000290: 7a3f 8b3e 79f4 00bf f548 563f 9fec 923e
000002a0: 909b 9dbc 9c1a e73d c421 5e3e f90f 98bd
000002b0: 88a6 0640 b2a9 143e 27e3 933e b0f3 e9bf
000002c0: 216f ae3f 1472 153f 059b 94be 741d aabe
000002d0: 05b9 273f 6e08 fd3e cd56 70bf 716f a83f
000002e0: 9ea7 a5be b4fb 59bd 6070 a4bf e7b7 90bf
000002f0: 099a 33be 085a 46bf dfc1 49be 7493 a2be

linear_relu_stack.0.bias f4 [32]
0.44400936 0.34449944 1.1929222 0.16527544 -0.3093221 -0.6213704 0.60691005 0.09128181
0.8121381 0.17426915 0.06788701 -0.2852367 0.57186186 -0.9165339 0.6561569 0.18063313
0.46430916 -0.2489933 0.3410862 1.5008348 -1.108678 -0.2894798 0.89665633 0.87457967
0.42361924 1.1289092 -0.16649449 0.78560287 -0.080481 -0.8693716 0.49182928 0.6292435
00000000: 3255 e33e 3b62 b03e adb1 983f f73d 293e
00000010: 775f 9ebe 2112 1fbf 755e 1b3f f5f1 ba3d
00000020: 48e8 4f3f 9d73 323e 5808 8b3d 8b0a 92be
00000030: 8a65 123f f7a1 6abf e6f9 273f e4f7 383e
00000040: eeb9 ed3e 1af8 7ebe daa2 ae3e 5b1b c03f
00000050: 29e9 8dbf b236 94be 458b 653f 74e4 5f3f
00000060: 9fe4 d83e 1980 903f 887d 2abe 451d 493f
00000070: 39d3 a4bd 238f 5ebf 0cd1 fb3e 1a16 213f

linear_relu_stack.2.weight f4 [32, 32]
-0.28262305 -0.18786708 -0.03808571 0.2437262 -0.1995599 -0.002336063 -0.5630781 0.907644
0.41222656 -0.17200544 0.5654972 0.26594144 -0.1524255 -0.014218521 0.20624112 -0.31348386
0.08859074 0.25834644 -0.005838114 0.10379311 -0.47178462 0.06287137 0.372731 -0.15766834
-0.6033382 0.10912408 -0.4109974 0.2734661 0.3942481 0.46530825 -0.38210282 -0.34623682
-0.3590866 -0.41666 0.19079144 1.0514289 0.3224646 0.13594429 -0.4990509 0.1691299
0.54694015 0.058369413 0.9309963 0.19798858 -0.33326128 -0.83762985 0.63231355 -0.4181178
0.31809 -0.8209734 -0.072538145 0.102734365 -0.2769033 -0.1787622 0.10374685 0.043544482
-0.59829605 0.5111117 0.35121498 0.51717085 0.6479673 0.60642433 -0.4794333 -0.9125512
-0.2143682 -0.20749767 0.67060846 -0.33461702 -0.16321039 0.068597674 -0.589733 -0.6844613
0.39149514 -0.30576134 0.51103467 0.2677302 0.62244475 0.65532994 -0.077356674 0.112555765
0.064552136 0.3544484 -0.59584874 1.4191371 -0.49395156 -1.6861186 0.46351555 -0.55432135
0.06285026 -0.04251986 0.6378912 0.2021851 -0.35930142 -0.3668241 1.1728487 0.06318236
-0.15571085 0.13005544 0.5595992 -0.16032204 -0.54631954 0.5790377 0.47325152 0.06247484
0.044777185 -0.054689404 0.15184414 -0.03443593 0.15249282 0.14370415 -0.05585903 0.060879048
-0.060521986 0.123091824 -0.7434004 0.6192099 -0.60704863 -0.6334781 0.4844292 -0.55937815
0.17795044 -0.2813815 -0.014874901 0.30962542 -0.12963459 0.43643522 -0.3382495 0.25561416
0.12523508 -0.025332104 0.68924564 -0.060081523 -0.48093158 -0.33038864 0.63808364 -0.2430109
0.5352846 0.04270826 -0.34759343 0.12768237 0.5446059 0.33240253 -0.17721592 0.09688345
-0.48841292 0.11044872 -0.534166 0.902719 -0.31615433 -0.11039577 0.2703382 0.112172864
0.412314 -0.3554132 0.17060393 -0.34573603 -0.7270539 -0.06971999 -0.23561653 -0.48446944
0.36046335 -0.011836712 0.78663445 0.3321637 -0.9230197 0.14238767 -0.9101034 0.11633662
0.75320375 -0.25935018 0.40919232 -0.079816915 -0.8257032 -0.229917 0.42576003 -0.55223304
0.12712559 -0.7463514 0.33732912 0.019767035 -0.2694637 0.51246905 0.06520668 -0.015624199
0.032961253 0.626794 0.8867239 -0.38341627 0.51649886 0.22323094 -0.6730758 -0.086756766
0.07252244 0.20061553 1.1212685 -0.5810027 -0.5722526 0.15886931 0.6033618 -0.5159565
-0.3957713 0.7716921 -0.22494303 0.6961234 0.08833822 -1.151222 -0.17553987 0.16547498
-0.28640154 -0.25724062 -0.42876145 0.107560866 0.8023538 -0.5604033 0.052342866 0.0012543652
0.4180717 -0.43138033 -0.90725654 0.26399106 -1.4720314 -0.3311631 0.2905866 -0.20446782
0.007849353 0.23188218 -1.6423913 0.09004516 0.9774915 -0.732011 -1.5495486 0.4937289
0.2698475 -0.022334699 0.556277 0.23596498 0.2001869 -0.8534584 0.3402218 -0.030563321
0.13455388 0.3012184 0.28203544 0.120129295 0.46122423 0.80428725 0.3152799 -0.44892773
0.05437673 0.1405992 0.14107856 -0.01301889 0.14874771 -1.4215091 -0.630754 -0.0026798164
00000000: f8b3 90be 3a60 40be c3ff 1bbd 5c93 793e
00000010: 6e59 4cbe a218 19bb e325 10bf 5b5b 683f
00000020: 5c0f d33e 3222 30be 6dc4 103f 7a29 883e
00000030: 6e15 1cbe cdf4 68bc df30 533e f580 a0be
00000040: 106f b53d fc45 843e a64d bfbb 7b91 d43d
00000050: c18d f1be b4c2 803d 99d6 be3e cf73 21be
00000060: 5f74 1abf 727c df3d 406e d2be c003 8c3e
00000070: e3da c93e e23c ee3e fba2 c3be f445 b1be
00000080: 33da b7be 7654 d5be d55e 433e 3995 863f
00000090: 141a a53e fb34 0b3e 9983 ffbe 6330 2d3e
000000a0: 4504 0c3f c414 6f3d c655 6e3f 85bd 4a3e
000000b0: 39a1 aabe e96e 56bf 4ddf 213f 8913 d6be
000000c0: b1dc a23e 502b 52bf e18e 94bd 6566 d23d
000000d0: 45c6 8dbe 700d 37be 3a79 d43d b35b 323d
000000e0: ee29 19bf 37d8 023f 73d2 b33e 4f65 043f
000000f0: 2fe1 253f a03e 1b3f 4878 f5be f59c 69bf
00000100: 5683 5bbe 457a 54be ffac 2b3f ec52 abbe
00000110: a020 27be f07c 8c3d bef8 16bf db38 2fbf
00000120: 0d72 c83e c08c 9cbe 2bd3 023f ef13 893e
00000130: 8a58 1f3f b4c3 273f 2d6d 9ebd a383 e63d
00000140: e933 843d 437a b53e 8b89 18bf 49a6 b53f
00000150: 38e7 fcbe bcd2 d7bf e951 ed3e 01e8 0dbf
00000160: a3b7 803d 4e29 2ebd d64c 233f 9c09 4f3e
00000170: 5bf6 b7be 5ed0 bbbe e81f 963f c165 813d
00000180: aa72 1fbe 412d 053e e541 0f3f 762b 24be
00000190: 99db 0bbf d13b 143f 064e f23e 9ee5 7f3d
000001a0: 4868 373d ff01 60bd 087d 1b3e b10c 0dbd
000001b0: 1427 1c3e 2e27 133e 70cc 64bd 4f5c 793d
000001c0: e7e5 77bd 9117 fc3d 7d4f 3ebf 8a84 1e3f
000001d0: 8a67 1bbf 9f2b 22bf 1b07 f83e 6833 0fbf
000001e0: a438 363e 3c11 90be dbb5 73bc 3987 9e3e
000001f0: eebe 04be 7074 df3e 0a2f adbe dcdf 823e
00000200: a03d 003e 4685 cfbc 6772 303f 0b18 76bd
00000210: aa3c f6be b328 a9be 7359 233f d9d7 78be
00000220: 6908 093f dbee 2e3d c4f7 b1be 2bbf 023e
00000230: 4b6b 0b3f aa30 aa3e 1778 35be d56a c63d
00000240: 4211 fabe f032 e23d 1abf 08bf 9818 673f
00000250: fbde a1be 2d17 e2bd c569 8a3e e3ba e53d
00000260: d21a d33e b8f8 b5be ccb2 2e3e 5004 b1be
00000270: 3420 3abf 5bc9 8ebd 7645 71be 610c f8be
00000280: a78e b83e c5ee 41bc e060 493f 5c11 aa3e
00000290: 054b 6cbf 13ce 113e 89fc 68bf e541 ee3d
000002a0: f6d1 403f 8cc9 84be a881 d13e 0d77 a3bd
000002b0: 4961 53bf 5d6f 6bbe 38fd d93e 255f 0dbf
000002c0: 362d 023e e310 3fbf 67b6 ac3e 7aee a13c
000002d0: 25f7 89be 2c31 033f 148b 853d a4fc 7fbc
000002e0: 6102 073d 9275 203f 5600 633f 234f c4be
000002f0: 4539 043f a796 643e b24e 2cbf 88ad b1bd
00000300: a586 943d 286e 4d3e ba85 8f3f 98bc 14bf
00000310: 257f 12bf a3ae 223e eb75 1a3f ba15 04bf
00000320: 89a2 cabe 9d8d 453f 7757 66be 2535 323f
00000330: abea b43d 3e5b 93bf b9c0 33be 4672 293e
00000340: 39a3 92be 0bb5 83be 9f86 dbbe df48 dc3d
00000350: 0f67 4d3f 9776 0fbf 7965 563d 8369 a43a
00000360: 7e0d d63e e2dd dcbe f741 68bf d629 873e
00000370: 866b bcbf 368e a9be c4c7 943e 0360 51be
00000380: 939a 003c 8672 6d3e e139 d2bf 9969 b83d
00000390: e23c 7a3f 1365 3bbf 9c57 c6bf 09ca fc3e
000003a0: 7429 8a3e 42f7 b6bc 2b68 0e3f cea0 713e
000003b0: cbfd 4c3e 407c 5abf 8d31 ae3e ee5f fabc
000003c0: 7ec8 093e 4c39 9a3e f366 903e 5906 f63d
000003d0: 9525 ec3e c5e5 4d3f 5e6c a13e dbd9 e5be
000003e0: 22ba 5e3d 3df9 0f3e e676 103e 2f4d 55bc
000003f0: 5251 183e 03f4 b5bf 1879 21bf dc9f 2fbb

linear_relu_stack.2.bias f4 [32]
0.26484272 0.51879007 0.23797612 0.2511956 -0.09406544 1.2699997 0.32739535 -0.1843992
0.0867163 -0.11942219 1.881081 -0.0037644424 -0.0047834 -0.14027591 -0.30246046 -0.052112956
-0.3215378 0.13573399 -0.06152827 0.25261718 0.028465133 -0.09496495 -0.015001974 -0.18633617
-0.260129 -0.036860924 0.68902165 0.10386317 0.5087633 -0.3530576 1.2126889 -0.10107847
00000000: 7799 873e 6dcf 043f 03b0 733e b69c 803e
00000010: 62a5 c0bd 5a8f a23f 5da0 a73e 25d3 3cbe
00000020: 5198 b13d 9f93 f4bd 43c7 f03f ddb4 76bb
00000030: 11be 9cbb 7da4 0fbe 19dc 9abe 6574 55bd
00000040: 9aa0 a4be dafd 0a3e 1105 7cbd 0a57 813e
00000050: b62f e93c fc7c c2bd d7ca 75bc e9ce 3ebe
00000060: a12f 85be 7bfb 16bd b963 303f 37b6 d43d
00000070: 503e 023f f7c3 b4be 6439 9b3f 3b02 cfbd

linear_relu_stack.4.weight f4 [4, 32]
0.52111715 0.598762 1.0688332 -0.76304287 1.0333954 0.47915477 1.5446278 1.0363166
1.190936 -1.0327342 1.9480205 0.70019287 0.4783377 0.6097992 0.5812632 -0.56693524
0.059159108 -0.4054086 -0.90571964 0.39131445 -0.04353168 -0.67000127 0.14698732 -0.8931006
-0.8541443 0.15700345 0.99522924 -0.85437214 -2.304803 2.0506127 -2.8869398 0.8135795
-0.15797631 1.1845539 -2.3230817 0.810268 -1.8544687 1.4556541 0.42733687 0.47952613
-1.6250039 0.9568393 0.29423323 0.23136923 0.1773193 -0.59077907 -1.943598 1.8832043
-1.9976128 1.9835417 1.2613251 1.8513727 1.5436108 -2.1573944 0.9745962 1.4334863
0.6706946 -0.059634138 -1.0234717 1.2064546 0.8655458 -2.027461 1.7317975 -0.8828196
-1.3336543 -1.7015424 0.37926644 -0.380891 -0.28661916 -1.6554912 -2.382525 -1.4554383
-0.038413025 0.010472469 0.38822144 -1.5726868 0.48295707 0.70557386 2.4984808 -3.0434566
0.32245967 0.4772648 0.58768576 -0.7762058 -0.24891038 1.3465766 1.9593288 -1.3596348
0.50096637 0.8513097 2.1063037 0.33347037 0.28812972 -1.8316236 3.5342367 -1.0546746
0.81996274 -0.39039183 0.06396457 0.94835466 0.40901178 -1.1010047 0.74715775 0.5545552
-0.40861738 0.7572307 -2.5083683 0.80882484 -0.7626852 -0.6912394 -1.6773859 -0.43465987
0.6453359 -1.3815407 -0.148069 -0.42303792 -1.0708518 1.9458255 -3.0471344 1.835796
0.19198263 -0.78344995 -1.2379766 0.066294834 0.7198361 0.42519328 -2.3497493 0.74357134
00000000: ef67 053f 7748 193f 87cf 883f c756 43bf
00000010: 4d46 843f c653 f53e 5db6 c53f 06a6 843f
00000020: 9770 983f a230 84bf bc58 f93f d73f 333f
00000030: aee8 f43e cd1b 1c3f aacd 143f ab22 11bf
00000040: d250 723d b791 cfbe 3edd 67bf 5e5a c83e
00000050: 464e 32bd 3485 2bbf d883 163e 3ea2 64bf
00000060: 33a9 5abf 83c5 203e 58c7 7e3f 22b8 5abf
00000070: e481 13c0 3d3d 0340 9fc3 38c0 bf46 503f
00000080: 8bc4 21be 769f 973f 5fad 14c0 b96d 4f3f
00000090: 3b5f edbf e052 ba3f e6cb da3e 7384 f53e
000000a0: 2100 d0bf 6cf3 743f bda5 963e 0eec 6c3e
000000b0: 3193 353e 4c3d 17bf d2c7 f8bf d70c f13f
000000c0: c7b1 ffbf b2e4 fd3f 1a73 a13f c8f9 ec3f
000000d0: 0a95 c53f c012 0ac0 237f 793f 7b7c b73f
000000e0: a4b2 2b3f ed42 74bd 1f01 83bf 1b6d 9a3f
000000f0: 6994 5d3f ecc1 01c0 8aab dd3f 7700 62bf
00000100: 2fb5 aabf 24cc d9bf 362f c23e 2504 c3be
00000110: bfbf 92be 23e7 d3bf 4a7b 18c0 cd4b babf
00000120: fa56 1dbd b894 2b3c f6c4 c63e cd4d c9bf
00000130: 2646 f73e 7da0 343f 1ce7 1f40 fec7 42c0
00000140: 6f19 a53e 0d5c f43e 9372 163f 6cb5 46bf
00000150: 5de2 7ebe 9f5c ac3f 49cb fa3f 8308 aebf
00000160: 553f 003f 6fef 593f aecd 0640 a1bc aa3e
00000170: bd85 933e a472 eabf ef30 6240 94ff 86bf
00000180: 14e9 513f 70e1 c7be dbff 823d 5fc7 723f
00000190: fe69 d13e b9ed 8cbf bb45 3f3f 54f7 0d3f
000001a0: 4c36 d1be dfd9 413f 1b89 20c0 250f 4f3f
000001b0: 563f 43bf 11f5 30bf 95b4 d6bf bd8b debe
000001c0: bc34 253f 53d6 b0bf 669f 17be 6d98 d8be
000001d0: ac11 89bf cf10 f93f 4004 43c0 5dfb ea3f
000001e0: 1897 443e 2d90 48bf 0476 9ebf 96c5 873d
000001f0: 2e47 383f efb2 d93e 4b62 16c0 b15a 3e3f

linear_relu_stack.4.bias f4 [4]
0.21190917 0.35583085 -0.3309094 -0.027410127
00000000: b8fe 583e 762f b63e f56c a9be 348b e0bc
