wlf/calibration_tools/calibration_models/XY and Yaw Filtered - 35 threshold/20240201-135809_20240131_model.ckpt (torch, 8335 bytes, 6 tensors)

linear_relu_stack.0.weight f4 [32, 6]
000000 1e b9 be 3d be 9d 1c bd 46 32 c4 3e 02 1f ad be
       0.09312652 -0.038236372 0.38319606 -0.3381272
000010 d2 f5 b6 3f da 57 fd 3c 8d 6c e1 3e 33 82 81 3f
       1.4293768 0.03092568 0.4402813 1.0117859
000020 7f 07 9a 3f 5c 84 4f bf d9 61 05 3f 29 48 36 3d
       1.2033538 -0.8106134 0.5210243 0.04450241
000030 b5 a8 d1 3e 0c f2 45 be dc 44 46 3f de e9 81 be
       0.40949026 -0.19330615 0.7744882 -0.2537374
000040 a2 b3 a8 3f 02 10 5b bd d5 dc f2 3d 63 1f 8a 3f
       1.317982 -0.053482063 0.118585266 1.0790828
000050 74 2b c1 be 83 43 e8 3e 2e 4f 61 bf ea d4 78 be
       -0.37728465 0.45364007 -0.88011444 -0.2429997
000060 52 7b 93 bd d4 5c bc 3d 5e d8 7b bf e9 15 17 3f
       -0.07201256 0.09197393 -0.98377025 0.5901781
000070 2d 45 4c 3e 1e 26 ad bd f9 3a 3b 3f ca 71 49 be
       0.19948263 -0.08454536 0.7313686 -0.19672313
000080 e1 eb e2 bd 4e de 34 bf 3a d3 37 3f 8f 22 84 3f
       -0.110801466 -0.7065171 0.7180668 1.0323046
000090 f5 3a 16 be 13 89 9b 3e 4f e5 e9 3e 3c 4c 86 3f
       -0.14670928 0.30378017 0.4568276 1.0492015
0000a0 9f 5d 6b 3f 94 08 1a bf d8 d4 c5 3e 0c 3b d4 3d
       0.9193973 -0.6016934 0.3863895 0.10362825
0000b0 94 92 32 3e 60 7a 6d be 88 0d 81 3f e8 55 3f bb
       0.17438728 -0.23191214 1.0082254 -0.0029195491
0000c0 f0 4e 2e 3f 45 91 94 bd 72 ae a9 3e a6 d0 9c bf
       0.680892 -0.072542705 0.33140904 -1.2251174
0000d0 2e 2d 16 bf fe e3 4b 3f b7 c0 78 3f 57 3b 6b 3e
       -0.5866269 0.79644763 0.9716906 0.22971855
0000e0 da 15 7a be d4 56 9f be 10 ed 49 bf 28 73 64 be
       -0.24422398 -0.31120932 -0.78877354 -0.22309554
0000f0 05 48 e3 3e e9 6b 6f 3f ee fd 59 3f 40 93 36 bf
       0.44390884 0.9352403 0.8515309 -0.71318436
000100 a6 0d 94 bf 01 57 c4 3d 2d 38 d0 3f 00 f3 f5 be
       -1.1566665 0.09586907 1.6267143 -0.48036957
000110 d3 87 75 3f 55 02 60 3f 42 70 a2 be 3c 4d 68 bd
       0.95910376 0.8750356 -0.3172627 -0.05671428
000120 16 6a 36 bd fe c0 8c bf 95 d9 40 3d 9c f5 c3 3e
       -0.044534765 -1.0996397 0.047082502 0.38273323
000130 1e 73 34 bf fa 9e 8f bd db 5c d0 3e 00 b6 22 bf
       -0.70488155 -0.07012744 0.40695843 -0.6355896
000140 e1 77 a0 bf e0 aa e7 bd b7 31 75 be ce 0e 06 3e
       -1.2536584 -0.11311889 -0.23944746 0.13091585
000150 e0 03 77 bf d4 25 6a 3e 89 03 66 3f 55 47 de 3e
       -0.9649029 0.22865993 0.89849144 0.43413797
000160 98 ea f4 3e 73 9b df bd 67 10 c2 3d 68 15 f2 bd
       0.4783523 -0.109183215 0.09475785 -0.11820489
000170 cd e8 c0 3e 56 47 b1 be 25 01 c3 3f e8 d9 8b bd
       0.37677613 -0.34624738 1.5234724 -0.06828672
000180 0c 20 52 bf 59 f3 68 3f 23 d3 12 bf 24 87 e4 3e
       -0.8208015 0.9099632 -0.5735342 0.44634354
000190 1c 31 44 be db d4 3a 3e cc 7f 62 be 0a 3b 9a be
       -0.19159359 0.1824526 -0.22119063 -0.30123168
0001a0 34 fa 03 3f d6 97 0a 3e 1b 2f 2c 3f 77 e8 92 bf
       0.51553655 0.13534483 0.6725938 -1.1477193
0001b0 d5 d7 0f 3f e8 16 12 bf a9 43 11 bf 46 ac 9f be
       0.5618871 -0.570662 -0.56743866 -0.31186122
0001c0 8d 10 0b bd e4 57 25 bf c8 c2 ad be 55 23 ff 3d
       -0.03395133 -0.64587235 -0.3393767 0.12457911
0001d0 7c ff f3 be 5d 18 03 bf 3e 82 58 bf 2a 64 74 3e
       -0.47655857 -0.5120905 -0.84573734 0.23866335
0001e0 a4 ca 6e be 3e f0 95 3d ff 02 1e 3e 82 fc 01 3e
       -0.23319489 0.07321213 0.1543083 0.1269398
0001f0 c3 2e a6 be 25 cc 64 3f 5a d4 a3 be c6 41 b2 be
       -0.3245755 0.89374 -0.3199795 -0.34815806
000200 3d 2b cc be 63 dc 6a bf b0 3a a4 bf 1e 5d da 3d
       -0.39876738 -0.91742533 -1.283041 0.10662292
000210 fd b2 40 3e bb f6 5a 3e 85 6b 5f be cd df c5 3e
       0.18818279 0.21383183 -0.21818359 0.3864731
000220 22 d0 bf 3f 7b 52 d6 3d 37 e0 55 bd d4 5e 73 3f
       1.4985392 0.10464951 -0.05221578 0.9506657
000230 5c 30 16 bf b5 20 44 bf c2 af e9 3e fa b0 8d 3d
       -0.5866754 -0.76612407 0.45641905 0.06918521
000240 f5 a3 e5 be dd 8a 20 3f c6 5c 0a bf c3 23 a5 3e
       -0.44851652 0.6271189 -0.5404781 0.32253847
000250 38 58 50 3f 0a 8a 04 bc 9a 9b a8 bf ce d2 97 bc
       0.8138461 -0.008089552 -1.3172486 -0.018533137
000260 4f 7b 1b be e8 6d 90 3f d9 75 94 bf 82 fa 39 3f
       -0.15183757 1.1283541 -1.1598464 0.7264787
000270 c4 33 0e 3f bc 55 fd bd 65 7a 9a 3e ca cd e6 be
       0.5554774 -0.12369868 0.30171505 -0.4507888
000280 51 da 58 3f a3 36 10 3d 3d 4a 48 bc aa ab 0d 3e
       0.84708124 0.035208356 -0.012224731 0.13835016
000290 cd 21 e5 bd 9b bf 0b 3f 5e 7b 07 40 bc df 7d 3e
       -0.111880876 0.5458924 2.1169047 0.24792379
0002a0 12 a1 7b 3f 45 ef ed 3e 42 f7 be be a1 1e 64 bd
       0.9829265 0.4647161 -0.37298018 -0.055693273
0002b0 2a c7 d1 be 58 aa 9e bc 5b 50 1c 3e d1 f4 26 bf
       -0.40972263 -0.019368336 0.15265028 -0.6521731
0002c0 98 9e 75 be 43 bc eb be b2 6c 22 bf bd 82 4b 3f
       -0.2398628 -0.4604207 -0.63447106 0.79496366
0002d0 e7 37 8b 3e 26 03 8f be 38 26 f3 3e 7c 40 33 bf
       0.27191088 -0.2793209 0.47490096 -0.7002027
0002e0 f4 54 97 3f 48 d9 45 3f d1 c3 92 3e 9d 96 03 3f
       1.1822801 0.7728467 0.2866502 0.5140169
0002f0 f5 3a 44 be f6 ce 0e 3d a8 b7 4b 3f 3b 6f bc 3d
       -0.19163115 0.034865342 0.7957711 0.09200903

linear_relu_stack.0.bias f4 [32]
000000 a1 d6 a9 be 28 dc bd 3f 5c 44 19 be 7e 73 4e 3f
       -0.3317156 1.4832811 -0.14967483 0.8064498
000010 55 f1 75 3f 90 de 56 3d 29 9e 27 3f 5a 83 93 bd
       0.9607137 0.052458346 0.6547571 -0.07202788
000020 bd 87 83 3e 9f ee 77 be 20 89 53 bf 12 e9 98 bf
       0.25689498 -0.2421212 -0.8263111 -1.1946127
000030 f1 1e a0 bc 7b b9 18 bf a4 5b 38 bf e4 55 c2 be
       -0.019546004 -0.5965802 -0.7201483 -0.37956154
000040 56 cf f3 3e 5f 6f 4d bf 7f 5a 74 3f 89 b5 5f bf
       0.47619122 -0.80248064 0.95450586 -0.87386376
000050 0c 2c 86 bf 0b 9c c8 3d 92 dd e2 be b6 53 00 3d
       -1.0482192 0.09795388 -0.4430967 0.031329833
000060 f3 3b 08 bf 6d 92 14 bf fb 9e cb 3d ae 53 6b be
       -0.53216475 -0.5803593 0.099424325 -0.2298114
000070 45 49 a3 be 6a 23 c0 3e b5 22 3b 3f 01 1b 54 3f
       -0.31891838 0.3752702 0.73099834 0.82853705

linear_relu_stack.2.weight f4 [32, 32]
000000 ed f6 4e 3e ff 87 e5 bd 4d cb c4 3d 04 2b 4f bf
       0.20211382 -0.1120758 0.09609089 -0.8092501
000010 86 7a 41 3e 4a 60 aa be 4a ba 04 3f 95 c7 0f 3f
       0.18894395 -0.33276588 0.51846755 0.56163913
000020 03 2f 70 be dd 8b 93 bd 92 8a a2 bf 19 40 a1 3e
       -0.23455434 -0.07204411 -1.2698538 0.31494215
000030 90 76 9b 3e f7 fa 05 bf 9c 6f 80 3e fb f1 0e 3e
       0.30363894 -0.52336067 0.2508515 0.13959496
000040 96 2f 82 be 40 3f 60 3d 87 a8 e4 be 1c a9 2d bf
       -0.2542693 0.05474782 -0.44659826 -0.67836165
000050 39 47 b8 3e 05 ab 8b bf 2c 39 48 3f 30 fa 14 3f
       0.3599184 -1.0911566 0.7821224 0.58194256
000060 f2 c9 0b 3f 55 e4 11 3d b6 f7 82 3f e4 8c c7 3e
       0.5460502 0.035618145 1.0231845 0.3897468
000070 24 43 a1 3e b1 bc 49 3e 9d 79 d2 3e 4f d7 0a 3f
       0.31496537 0.19700886 0.4110841 0.54234785
000080 86 24 a3 bd 85 69 84 3e 9f c6 c8 be 9f ed 9a be
       -0.07965951 0.25861755 -0.39214036 -0.30259416
000090 08 24 28 be c2 0e 97 be f7 cb ac 3e 27 5e b0 be
       -0.16419995 -0.29503447 0.33749363 -0.34446833
0000a0 37 01 1f 3e 61 62 c2 be 53 f7 10 3e a5 dc 9b 3e
       0.15527807 -0.37965682 0.14156847 0.30441776
0000b0 df 77 1f 3d 24 48 ff 3e fb 5f 0d be be 95 44 bf
       0.038932677 0.49859726 -0.13806145 -0.7679099
0000c0 99 15 0e 3f e2 7c b4 bd 08 da 43 3e 78 ff e5 bd
       0.55501705 -0.08812882 0.19126141 -0.112303674
0000d0 ed 05 45 be 11 68 c6 3e 90 70 d7 be cf 78 8f be
       -0.19240542 0.3875127 -0.42078066 -0.28021857
0000e0 5f 2c 82 bf 51 ba 0a 3f ee 3b 40 be ca cf 53 be
       -1.0169791 0.54190546 -0.18772861 -0.20684734
0000f0 79 6f 6b 3e 42 dd f4 bc 35 fd a2 3e cd 6d 4a 3f
       0.22991742 -0.02989066 0.31833807 0.7907379
000100 fe ba 16 bf 86 1a b1 3c 7c ee bb 3c f9 b9 f9 bd
       -0.5887908 0.021619093 0.022940867 -0.121936746
000110 f3 43 4c bb c6 c3 b2 3d 69 99 1e 3f cc 45 e2 bc
       -0.003116843 0.08728747 0.61952835 -0.027621172
000120 ea 7f d1 3e 5f 33 1a bf e2 cf 4d be 0d 8c ab 3e
       0.40917903 -0.60234636 -0.20098832 0.33505288
000130 28 7e d9 3d c7 6f 43 bd 1a 6a 02 3f 55 79 92 bf
       0.106197655 -0.04771402 0.5094315 -1.1443278
000140 0c 65 0b 3d ea 5f 47 3e 47 fd a5 3e dd 35 65 3e
       0.034031913 0.19470182 0.32419798 0.22383828
000150 0d ca 58 be 53 88 3f 3e 7c ba ab bf 72 57 d6 be
       -0.21170826 0.18704347 -1.3416286 -0.4186359
000160 4b 4c d2 be 9f 0b 0c 3e a0 ab 65 be 93 5b 03 bc
       -0.41073832 0.13676308 -0.22428751 -0.008017438
000170 c4 b4 4b 3f 93 f3 a5 3e 72 fe 49 3f f1 9e c3 3d
       0.795727 0.32412395 0.7890388 0.095518
000180 72 37 bd bf 18 dc a4 3e e7 5e 10 bf 67 09 f6 3c
       -1.4782546 0.32199168 -0.5639481 0.03003378
000190 a5 d8 55 3f c6 2e 2e be 72 a9 e9 3d 18 fb 62 bc
       0.835337 -0.1701003 0.11409272 -0.013853811
0001a0 cf 5d f2 3e 1a bb 91 bf ae 7f 53 be bb 25 e9 3e
       0.47337195 -1.1385224 -0.20654175 0.455366
0001b0 0d 22 c4 3d eb cc 1f be 49 68 bb be 0f e4 c5 bf
       0.09576807 -0.15605514 -0.36603 -1.5460223
0001c0 26 45 24 be 91 9b 37 bf 25 bb 61 bd 65 ef a7 3e
       -0.16042003 -0.7172175 -0.055110116 0.3279983
0001d0 2f 36 52 be e0 e5 17 3e e4 ee 23 bf 1c e7 45 bf
       -0.20528482 0.14833784 -0.64036393 -0.7730577
0001e0 33 24 06 bf 7b 7b 7f be 2c 5c f9 be 7c 94 6e be
       -0.52398986 -0.24949448 -0.48703134 -0.2329883
0001f0 a5 b5 08 3f 8a 70 c4 3e d0 95 e3 3e f1 f8 28 3f
       0.5340217 0.3836711 0.44450235 0.66004854
000200 b6 01 cf be 2b 59 b8 be 01 4d 0b 3f b5 62 fc bc
       -0.40430993 -0.3600553 0.54414374 -0.030808786
000210 96 86 91 be 47 1d 1c 3f 79 66 d5 3e 31 2b 9d 3e
       -0.28422993 0.60982174 0.41679743 0.30697015
000220 10 29 51 bf 95 ea 14 3e 69 21 80 3f f5 24 1f be
       -0.8170328 0.14542611 1.0010196 -0.15541442
000230 ee 7a 41 bf 23 7e 55 be 6a 71 5d 3c 0c e6 06 bf
       -0.755782 -0.20848899 0.01351581 -0.52694774
000240 d0 b1 00 bf 51 b2 2d bf e5 1d 70 3e 78 ea be be
       -0.5027132 -0.67850214 0.23448904 -0.3728826
000250 6c f3 bd 3e 50 9a 28 3f 12 f5 27 3f 38 8f 29 be
       0.3709978 0.6586046 0.6560832 -0.1655854
000260 11 10 b0 3e 3f bb c4 3c 31 bb 62 3d d2 5c 27 3f
       0.34387258 0.024015067 0.0553543 0.6537601
000270 37 4b 3b bd a7 69 1e 3f 09 c3 7b be a0 42 f7 be
       -0.045726027 0.6187996 -0.24586119 -0.48293018
000280 66 cd a0 bf e7 92 0d 3f ad 34 aa be 7b f3 8b 3e
       -1.2562683 0.5530228 -0.33243313 0.27334198
000290 19 30 99 3e 6e ad ed be 3e 89 5a 3e 7d 6d 7f bd
       0.29919508 -0.4642138 0.21341416 -0.062360276
0002a0 b1 16 1b 3d 96 e4 d0 be bb 03 00 3e 32 09 3d 3d
       0.037863437 -0.40799397 0.12501423 0.046151347
0002b0 69 9b 29 3f e5 c9 01 3f e2 5e 94 be ec bd 4c bf
       0.6625276 0.5069869 -0.2897864 -0.799773
0002c0 01 d7 27 3e 53 35 41 3f d6 05 a6 3e 80 a0 95 3c
       0.16390611 0.7547199 0.32426327 0.018265009
0002d0 31 e5 8e 3c ac e1 4c 3f 4b c6 af bf b1 72 49 bf
       0.017443271 0.8003185 -1.3732389 -0.7869063
0002e0 ee c9 4f bf 16 99 a0 3c bf a0 de be 46 35 3f bf
       -0.81167495 0.019604247 -0.43482015 -0.74690664
0002f0 e0 0b 0a be ef e6 0c be 88 6d 82 3e d8 13 fd 3e
       -0.13481092 -0.13759969 0.2547419 0.49429202
000300 4f 0f 98 bd 3e 04 91 3e bc 3f 01 bf 92 c3 38 be
       -0.07424795 0.2832355 -0.50487876 -0.18043354
000310 6a 9f 88 bd c6 c2 a1 be 70 0f f7 3d 8d 11 82 be
       -0.06671031 -0.31593913 0.12063491 -0.25404015
000320 9d f5 a0 3c 51 4f 95 be 0a d7 ac 3d 9a 7b 99 3e
       0.019648368 -0.29162076 0.08439453 0.29977113
000330 e4 c2 5f 3c 0b b9 c1 3e 49 0d 2c be 13 c3 3b bf
       0.013657305 0.3783649 -0.16801943 -0.73344535
000340 f5 bd 10 3f 07 28 ac be 60 90 4c 3e 3e d1 b0 3d
       0.5653985 -0.33624288 0.1997695 0.0863366
000350 a5 20 1c be a2 07 83 3e 72 e5 39 be b6 50 de be
       -0.15246828 0.2559176 -0.18153933 -0.43420953
000360 dd da 76 bf 59 0b e8 3e cf ca 0b be ea f2 a3 be
       -0.9642771 0.45321158 -0.13651584 -0.32021266
000370 f2 e9 9d 3e f8 f8 0a be 59 26 c5 3e 32 5b 44 3f
       0.3084255 -0.13571537 0.3850582 0.76701653
000380 2c b3 f2 3e 48 0b 34 bf f9 22 5e be cb 6f fe 3e
       0.47402322 -0.70329714 -0.21693029 0.49694666
000390 48 d4 b3 be 46 21 8b 3f 88 6f 9c 3e 4e 32 30 bf
       -0.35122895 1.0869529 0.30553842 -0.6882676
0003a0 2b ae 13 bf 29 4e 2f bf 07 07 12 bf 40 d9 15 be
       -0.57687634 -0.6847864 -0.5704197 -0.14633656
0003b0 15 3f 0f 3f 49 96 28 bf 15 03 1f bf ba ee 48 3f
       0.5595563 -0.65854317 -0.6211408 0.7848927
0003c0 bd 72 1a 3f a0 48 fd 3d d4 c8 8e 3d a2 93 8d 3f
       0.60331327 0.12367368 0.06971899 1.1060679
0003d0 46 f4 fc 3e 3b 7b bb be 90 c2 9e 3d 00 7e 48 be
       0.49405116 -0.36617455 0.077519536 -0.19579315
0003e0 9f 7c f1 3b 6d c1 3a 3f 70 09 8f be b4 f3 e6 3e
       0.0073695923 0.72951394 -0.27936888 0.45107806
0003f0 cc 33 05 3f aa 41 9a be 72 a6 fd be 80 a7 31 be
       0.5203216 -0.30128223 -0.4954105 -0.17349052

linear_relu_stack.2.bias f4 [32]
000000 bf 53 0d bf 3d e5 87 3e 1e 18 a8 3e fa b7 8c 3e
       -0.5520591 0.26542082 0.328309 0.27484113
000010 92 50 30 3f 7c 1a 05 3e 1d 24 ba 3e 6c 9a 0f bf
       0.6887294 0.12998384 0.36355677 -0.56095004
000020 48 d0 07 bf ed 7b 90 3e 02 fa 96 3e 31 a1 2b 3e
       -0.53052187 0.28219548 0.29487616 0.16760708
000030 d0 a7 58 3e 7d ac 06 3e b8 d4 de 3e 43 d9 db 3e
       0.21157765 0.13151737 0.43521667 0.42939195
000040 e5 31 f4 3e 53 00 8c be 51 24 2f 3e ce f7 0d 3f
       0.47694317 -0.27343997 0.17103697 0.55456245
000050 54 eb 0a 3f 7b 34 3c 3d 35 51 84 3f fe de 9f 3e
       0.5426533 0.045948487 1.0337282 0.31224817
000060 59 7b d3 3e 04 98 06 3f 3d e6 89 3f bd 4d e4 be
       0.41305044 0.5257571 1.0773388 -0.4459056
000070 93 11 55 3e a9 cb 84 3e ae 1c 78 3f c7 54 c1 3e
       0.20807485 0.2593663 0.9691876 0.37759992

linear_relu_stack.4.weight f4 [4, 32]
000000 7c e6 20 3f 01 56 a1 bf 37 18 98 bf 3f 07 ba 3e
       0.6285169 -1.2604371 -1.188239 0.36333653
000010 da 63 2a c0 d7 72 21 3f 8b 6c 73 bf 74 ff ff 3f
       -2.6623445 0.63065857 -0.950875 1.9999833
000020 2b 29 04 40 3d b0 af 3e 23 bb 42 3f 64 b7 59 bf
       2.0650127 0.34314147 0.760668 -0.85045457
000030 b8 5f 2d 3f bc 47 89 be 48 e9 9e bf 92 13 bd bf
       0.6772418 -0.2681254 -1.2414942 -1.4771597
000040 6e ae 32 3f 21 e9 b0 bf d0 03 d1 be 95 6c 82 bf
       0.6979741 -1.3821145 -0.4082322 -1.0189387
000050 a0 94 f1 3e f8 cf 92 be bb 6d 52 3f 1e 63 2b 3f
       0.47183704 -0.28674293 0.82198685 0.66948116
000060 3c 70 a2 3f 05 b6 69 3f 67 1b 8b 3f 8d b8 63 3f
       1.2690501 0.91293365 1.0867738 0.8895348
000070 c5 b4 c7 3f df ea f3 bf 43 67 0e bf 53 ac 90 bf
       1.5602041 -1.9056052 -0.55626315 -1.1302589
000080 b5 1b e8 3e c3 b7 38 3f c5 5e 81 3e d7 7b 0b c0
       0.4533364 0.721554 0.25267616 -2.1794336
000090 8b f3 95 3f 7a 19 0a c0 1a 2c 54 3f 1e dc 9f bf
       1.1714948 -2.157805 0.82879794 -1.248905
0000a0 d3 15 f1 bf f5 16 84 3f 53 05 96 be 1e 25 ff 3e
       -1.8834785 1.0319506 -0.29300937 0.49833006
0000b0 23 85 a5 bf 29 77 2e c0 b5 44 31 3f 4b 0f 57 3f
       -1.2931255 -2.726023 0.69245464 0.8400771
0000c0 e6 0d 02 bf 49 fc 24 3f 5f 88 ae 3f c4 83 6b 3f
       -0.5080246 0.64447457 1.3635367 0.91997933
0000d0 95 06 0e 3f 75 05 ec 3f ca a6 be 3e 96 1c 5f be
       0.55478793 1.8439165 0.37236625 -0.21788248
0000e0 6a 5f 9c 3e 6b c7 8d be e9 2e 13 3f df c5 1b c0
       0.30541545 -0.27691206 0.57493454 -2.433952
0000f0 6c 5b 91 bf af e8 d6 3e 9c ad e1 3f 2b 0c 56 3f
       -1.1356025 0.41974398 1.7631106 0.83612317
000100 30 a7 eb bf b1 b4 d5 be 25 ea 68 3f 78 c9 a2 3f
       -1.8410397 -0.4173942 0.90982276 1.2717733
000110 04 ed b2 3f bc 76 e4 3e 04 3f 9e be 8d 19 fe 3f
       1.3978581 0.44621837 -0.30907452 1.9851547
000120 f4 a5 89 3e 51 ec 03 c0 04 9b 68 3f 4d 16 8b be
       0.26884425 -2.0612986 0.90861535 -0.27165452
000130 d6 9a 10 be 71 de 3d 3f 30 68 86 be db a8 b5 3e
       -0.14121565 0.74167544 -0.26251364 0.3548039
000140 a2 51 74 3e 35 34 29 bc 9e 86 6b 3f 33 3e 27 bf
       0.23859265 -0.0103273885 0.92002285 -0.65329283
000150 76 d3 38 bd 4e b4 c7 bf 96 46 3e bf 24 04 1f 40
       -0.04512354 -1.56019 -0.74326456 2.4846277
000160 36 7a a2 bf 10 62 ca be 16 52 3e bf 9b b4 ee 3e
       -1.2693546 -0.3952794 -0.74344003 0.46622166
000170 7d 89 39 bf 36 64 1a 3f 77 03 96 3e dd 72 47 3f
       -0.72475415 0.6030916 0.29299518 0.7790964
000180 e6 b0 9c 3f 9e 4d 24 3f 91 80 10 3f fc 35 2a 3f
       1.2241485 0.64180934 0.56446177 0.66488624
000190 91 62 2a bf 47 84 22 3f 0b 03 1e 3f c6 ee cc bf
       -0.6655665 0.6348309 0.61723393 -1.6010368
0001a0 9b b6 fe bf 56 fe af be fe 9b cd be 46 7e aa 3e
       -1.9899477 -0.3437373 -0.40158075 0.33299464
0001b0 2c 58 1e 3f 30 16 ae 3f d7 f1 19 3f f4 f2 b1 bd
       0.6185329 1.3600521 0.60134643 -0.08688918
0001c0 3b 41 dc be 6b 73 1d 3f 6d 92 b2 bf 07 b8 22 3f
       -0.43018517 0.6150424 -1.3950936 0.63562053
0001d0 85 b3 85 bf 37 c7 18 bf ca 94 1d be 3c 6e dd bf
       -1.044541 -0.5967898 -0.1538879 -1.7299266
0001e0 4d 94 ad bd a3 b5 de be 73 00 d5 bf 9c 78 0a 3f
       -0.08475552 -0.43497953 -1.6640762 0.54090285
0001f0 d0 16 05 3f 7f f1 4b 3f 7f 94 5b c0 b3 39 3e bd
       0.51987934 0.7966537 -3.4309385 -0.046441745

linear_relu_stack.4.bias f4 [4]
000000 c4 e3 48 3e 3a 8c 72 bd 19 23 58 be 7f 79 3d be
       0.19618136 -0.05921576 -0.21107139 -0.18503378
