wlf/calibration_tools/calibration_models/XY Filtered/20240201-135416_20240131_model.ckpt (torch, 8335 bytes, 6 tensors)

linear_relu_stack.0.weight f4 [32, 6]
0	0xbf8ab243	-1.0835651
1	0x3f8fe995	1.1243159
2	0x3fdf9696	1.746783
3	0x3f0ab9c6	0.5418972
4	0x3f4a8748	0.7911267
5	0x3ef20e58	0.47276568
6	0xbe0d3e45	-0.13793285
7	0x3d722916	0.059121214
8	0x3b0d31e8	0.002154464
9	0x3e440d56	0.19145712
10	0x3f377623	0.7166464
11	0x3fada495	1.3565851
12	0x3e40b90d	0.18820591
13	0x3f81b89c	1.0134463
14	0x3f2a02bd	0.6641043
15	0x3f43e704	0.76524377
16	0xbf3b4a3f	-0.73160166
17	0xbf1bb8a2	-0.608286
18	0x3f1f5f02	0.62254345
19	0xc00cfdd4	-2.2029924
20	0x3fbc291b	1.4700044
21	0x3c8da777	0.017291768
22	0x3cce4345	0.025178561
23	0x3c16aca8	0.009196438
24	0x3fcdc7ae	1.6076562
25	0xbf00093f	-0.5001411
26	0x3e2b428a	0.16724601
27	0x3fe3d5d8	1.7799635
28	0xbf5c148c	-0.8596885
29	0xbe39afe3	-0.18133502
30	0xbf335ee7	-0.70066684
31	0xbdac3620	-0.08408761
32	0x3f512931	0.8170348
33	0xbf17fc05	-0.59368926
34	0x3efe6d78	0.49692893
35	0x3f505e89	0.8139425
36	0x3eb77c36	0.35836953
37	0xbc695aeb	-0.014242868
38	0x3fe945b0	1.8224392
39	0xbfb142e3	-1.3848537
40	0xbee5c12e	-0.44873947
41	0xbf5b7e21	-0.8573933
42	0x3e617a98	0.22019422
43	0xba1407b0	-0.00056468975
44	0xbe7a42e3	-0.24439578
45	0x3f47fa69	0.7811647
46	0x4012d234	2.2940798
47	0xbd68e4b2	-0.056858726
48	0x3f37e460	0.7183285
49	0x3ebfb0f6	0.37439698
50	0x3e09b632	0.13448408
51	0xbecd5051	-0.4010034
52	0x3f03440a	0.51275694
53	0x3f92adcc	1.1459289
54	0x3f08ce0a	0.5343939
55	0x3f1bfc52	0.60931885
56	0xbf0f7cb7	-0.56049675
57	0xbed30838	-0.41217208
58	0x4001ab22	2.02607
59	0xbd2f31dc	-0.04277216
60	0xbf6e9d46	-0.9320873
61	0xbf526c23	-0.82196254
62	0x3e37bdfb	0.17943566
63	0xbef54348	-0.47902894
64	0xbf72168b	-0.9456565
65	0x3ea8ab9f	0.32943437
66	0xbe09b07a	-0.13446227
67	0x3c2557a3	0.010091695
68	0xbfa52f2a	-1.2905018
69	0xbf52e3b0	-0.82378674
70	0xbfa02971	-1.2512647
71	0xbf09480d	-0.53625566
72	0x3f0bad1e	0.5456103
73	0x3dbc17c4	0.091842204
74	0x3e6b8b1e	0.23002288
75	0xbd50b1a1	-0.05095065
76	0x4023e763	2.5609977
77	0x3e591eef	0.21203206
78	0x3f9704ab	1.17983
79	0xbfe140e1	-1.7597924
80	0xbe1f00e2	-0.1552768
81	0x3f9c9e30	1.2235775
82	0x3f69d9e0	0.91348076
83	0xbf82aed5	-1.0209605
84	0xbf322641	-0.6958962
85	0xbc2665b8	-0.010156088
86	0x401bc9fb	2.434203
87	0xbf72c01d	-0.9482439
88	0x3ccf2d1b	0.025290063
89	0x3f3e3587	0.74300426
90	0xbe908869	-0.28229073
91	0x3e0a8ec8	0.13531029
92	0x3ea8a0e5	0.32935253
93	0xbf0a9495	-0.5413297
94	0x402d1a2a	2.704722
95	0x3eb5d248	0.35511994
96	0xbef33352	-0.47500092
97	0x3f952263	1.1651119
98	0x3e699c9e	0.22813651
99	0x3f90f709	1.1325389
100	0xbebbb23a	-0.36659414
101	0x3f8af2ca	1.0855343
102	0x3f40a9c0	0.7525902
103	0x3f96a9f1	1.1770612
104	0xbee6e3b3	-0.45095596
105	0xbf62faeb	-0.8866412
106	0xbe18d7e8	-0.14926112
107	0xbf0d22a4	-0.5513098
108	0xbe490be1	-0.19633438
109	0x3f78b880	0.97156525
110	0x3f2add9e	0.6674441
111	0xbe670f0d	-0.22564335
112	0xbf17f7a1	-0.59362227
113	0xbf9494a4	-1.1607862
114	0xbf12bcb3	-0.5731918
115	0xbfb4347f	-1.407852
116	0xbd786455	-0.06064256
117	0x3f8ddbb8	1.1082678
118	0x3edf9793	0.4367033
119	0x3f0ba848	0.5455365
120	0x3f695465	0.911444
121	0xbf6c96c1	-0.9241753
122	0xbfcb573c	-1.5885997
123	0xbe03019f	-0.12793587
124	0x3eb0aba7	0.3450596
125	0x3eaca98b	0.337231
126	0xbe8767b3	-0.26446304
127	0x3f78c449	0.9717451
128	0xbf2b69fd	-0.669586
129	0x3f40a903	0.7525789
130	0xbf98990a	-1.1921704
131	0xbe6f86e5	-0.23391302
132	0x3d1574ee	0.036488466
133	0x3f1b374a	0.6063124
134	0x3ec5ae84	0.38609707
135	0xbfefa3b4	-1.8721833
136	0x3de01869	0.10942156
137	0x3f5cd1ae	0.86257446
138	0xbc8579ec	-0.016293488
139	0xbefb32fe	-0.4906234
140	0xbf63b848	-0.88953066
141	0xbea00e2e	-0.31260818
142	0xbfcf1921	-1.6179544
143	0xbd43a227	-0.047762062
144	0x3e5b4c08	0.21415722
145	0xbe2ccf75	-0.16876014
146	0x3f9dc884	1.2326818
147	0xbf2ac54e	-0.66707313
148	0x3f0b7816	0.5448011
149	0xbf6c0be3	-0.9220564
150	0xbe7b9f85	-0.2457257
151	0x3f26ddd7	0.6518225
152	0xc00ec409	-2.230715
153	0xbe835d70	-0.25657225
154	0xbe958f2e	-0.292108
155	0xbe9691ae	-0.2940802
156	0x3fb385d7	1.402522
157	0x400109d3	2.0162246
158	0x3ea7187e	0.32635874
159	0xbf0ea544	-0.55720925
160	0x3e95dfd8	0.29272342
161	0xbb86f015	-0.0041179755
162	0x3edecba1	0.43514732
163	0xbe0882f5	-0.13331206
164	0x3fde81d4	1.738337
165	0xbfdc5fed	-1.7216774
166	0x3f668fd5	0.9006322
167	0xbe9bc6ad	-0.30425015
168	0xbfd85842	-1.6901934
169	0x3f89be67	1.0761231
170	0x3fa41527	1.2818955
171	0x3e4faa50	0.20279813
172	0x3f7828c7	0.9693722
173	0x3e9669ac	0.29377496
174	0xbed7d91f	-0.42157838
175	0xbf346063	-0.70459574
176	0xbf0a200c	-0.5395515
177	0xbf40b55c	-0.7527673
178	0xbf97aeba	-1.1850197
179	0xbd1071d7	-0.035264816
180	0x3e35ac2f	0.17741464
181	0x3fd05dbb	1.6278604
182	0x3e3f4e25	0.18682154
183	0xbf2615f6	-0.6487726
184	0xbfa99def	-1.3251323
185	0x3e65f822	0.22457936
186	0x3efe332c	0.49648416
187	0xbece118c	-0.40247762
188	0x3eaeec49	0.34164646
189	0x3e118e50	0.14214444
190	0xbf989862	-1.1921504
191	0x3c008600	0.007844448

linear_relu_stack.0.bias f4 [32]
0	0x3f399ab2	0.7250167
1	0x3f13846a	0.5762392
2	0x3fafc6af	1.3732508
3	0xbf1ceea6	-0.6130165
4	0xbff41597	-1.9069089
5	0x3f186345	0.59526473
6	0xbeda89d7	-0.42683288
7	0xbe3ef0db	-0.18646567
8	0x3f633d36	0.88765275
9	0xbf424f12	-0.759019
10	0x3f44fa0e	0.76944053
11	0xbe08d65a	-0.13363019
12	0xbedfc374	-0.43703806
13	0xbedda1ec	-0.432876
14	0x3f2ec335	0.6826661
15	0x3f31f8d0	0.6952028
16	0x3f7f3a53	0.9969837
17	0x3fac6165	1.3467222
18	0x3ef32dfd	0.47496024
19	0x3f71b4bd	0.9441641
20	0x3f0183f9	0.50592
21	0x3f94ce1c	1.16254
22	0x3fce170d	1.6100785
23	0x3e3b73ba	0.18305865
24	0x3f4aa0e5	0.79151756
25	0xbc9c4bb9	-0.019079076
26	0x3f71783f	0.94324106
27	0xbc0c791f	-0.008573799
28	0xc00e25c7	-2.2210557
29	0x3ea12a4e	0.31477588
30	0x3eaab29b	0.3333939
31	0x3ff7b6e2	1.9352686

linear_relu_stack.2.weight f4 [32, 32]
0	0x3e1ae98f	0.15128158
1	0xbd98111e	-0.0742514
2	0x3e4fc2a7	0.20289098
3	0xbe731e4e	-0.23742029
4	0x3e4b46ce	0.19851229
5	0x3e7915f8	0.24324787
6	0x3f50ddcd	0.8158844
7	0x3f6382f1	0.88871676
8	0xbde2edd4	-0.11080518
9	0x3fabf1c5	1.3433157
10	0x3e39b730	0.18136287
11	0x3e001928	0.12509596
12	0xbea7c4a7	-0.3276722
13	0x3e9f06e7	0.31059954
14	0xbe82c172	-0.25538212
15	0xbd742364	-0.059604064
16	0x3d8d2263	0.06891324
17	0xbe0fcefc	-0.14043802
18	0x3d85a99c	0.06526491
19	0x3f06e201	0.52688605
20	0x3db4a432	0.0882038
21	0xbe99803a	-0.29980642
22	0xbe9f0ccd	-0.31064454
23	0x3ecbba89	0.39790753
24	0xbf608b9c	-0.87713027
25	0x3d27a6e6	0.04093065
26	0x3df668d4	0.12031713
27	0xbf733dd5	-0.95016223
28	0x3e86a26e	0.262958
29	0x3d962372	0.073309794
30	0x3e94a2a3	0.29030332
31	0x3ddae056	0.1068732
32	0x3f901ab7	1.1258153
33	0xbd046a4c	-0.032327935
34	0x3f11535b	0.56767815
35	0x3e086103	0.13318257
36	0xbe0d99cd	-0.13828202
37	0xbd4a2919	-0.0493556
38	0x3ec5b566	0.3861496
39	0xbf24ac10	-0.64325047
40	0xbeaa2ce5	-0.33237377
41	0xbeb83339	-0.3597658
42	0x3e8274c8	0.25479722
43	0x3e14ee94	0.14544135
44	0x3ed4bbd5	0.41549554
45	0xbed7616a	-0.4206651
46	0xbea7f7b5	-0.32806173
47	0xbeb5af3d	-0.3548526
48	0xbf1a0054	-0.6015675
49	0x3f2c0ef7	0.67210335
50	0x3dca95af	0.09891831
51	0xbe895c30	-0.26828146
52	0x3d708d40	0.058728456
53	0x3f14c2a7	0.58109516
54	0x3ccc7e32	0.024962518
55	0xbe9b9dc8	-0.30393815
56	0xbeb1c370	-0.3471942
57	0xbe29e292	-0.16590336
58	0xbf2e1cf2	-0.6801292
59	0x3f0fea0c	0.562165
60	0xbf2c2e86	-0.6725849
61	0xbe309bea	-0.17246976
62	0x3e786dfa	0.24260703
63	0x3e79faec	0.24412125
64	0x3ea7ca0e	0.32771343
65	0xbe12382e	-0.14279243
66	0xbf39157e	-0.7229842
67	0xbe6e465d	-0.23269029
68	0x3d8bb7a0	0.06822133
69	0xbe6123da	-0.21986333
70	0x3f0a1ebf	0.53953165
71	0x3f0b76a0	0.5447788
72	0x3f042b3f	0.5162849
73	0xbf285cc8	-0.6576657
74	0x3ebb6a5b	0.3660458
75	0xbeaece21	-0.3414164
76	0xbe8072c2	-0.25087553
77	0xbe58affa	-0.2116088
78	0x3f68e1ff	0.9096984
79	0xbe723181	-0.23651697
80	0x3f0d753a	0.55257
81	0x3f3faed5	0.7487615
82	0x3e5b886d	0.21438761
83	0xbe0493a7	-0.1294695
84	0x3e8b7b48	0.27242494
85	0xbfb18018	-1.3867216
86	0x3b71108b	0.0036783542
87	0xbf20ce24	-0.62814546
88	0x3f50c503	0.81550616
89	0x3e88c260	0.26710796
90	0x3d79430b	0.060854953
91	0x3f2ef17a	0.68337214
92	0xbea0235a	-0.3127697
93	0xbceb0b68	-0.028691962
94	0xbda298e8	-0.07939321
95	0xbf778b9e	-0.96697414
96	0x3f037412	0.51348984
97	0x3d6d5ffd	0.05795287
98	0xbd830d5e	-0.06399034
99	0x3f727d37	0.9472231
100	0x3edcaa35	0.43098608
101	0x3f25a6a8	0.6470742
102	0xbe220dc4	-0.15825564
103	0x3dd85f25	0.105650224
104	0x3f037ac2	0.5135919
105	0xbee62a7a	-0.44954282
106	0xbf92faa0	-1.1482735
107	0x3e28ab7a	0.16471663
108	0x3f34d12e	0.7063168
109	0xbeb8d607	-0.3610079
110	0xbe8b70e1	-0.27234557
111	0x3eefb333	0.46816406
112	0xbecd3fa6	-0.40087622
113	0x3d9028f0	0.07039058
114	0xbd8c5ece	-0.0685402
115	0x3f64a153	0.8930866
116	0xbe806caf	-0.2508292
117	0x3ec8e688	0.3923838
118	0x3ec9f69f	0.3944597
119	0x3eed7b7a	0.46383268
120	0x3e7ac267	0.24488221
121	0x3e90e514	0.28299773
122	0xbf151305	-0.58232147
123	0x3f5a844e	0.8535813
124	0xbf4fb7bc	-0.8113973
125	0xbf0a26ae	-0.5396527
126	0xbe26112d	-0.1621749
127	0xbf42b037	-0.7605013
128	0xbe23d81c	-0.16000408
129	0x3da37690	0.079815984
130	0x3f0ee365	0.55815727
131	0x3fbe1253	1.4849342
132	0xbee2e2ff	-0.4431381
133	0x3e8757c6	0.26434153
134	0x3ea81fd3	0.3283678
135	0x3f02a934	0.51039433
136	0x3db14e50	0.08657515
137	0x3f263028	0.6491723
138	0x3f42445d	0.75885564
139	0xbf0f7224	-0.5603354
140	0x3e6a5d44	0.2288714
141	0xbf3fefc9	-0.7497526
142	0xbf1342eb	-0.57523984
143	0xbe11cb33	-0.1423767
144	0x3f2ec99a	0.6827637
145	0xbe2756a6	-0.16341648
146	0xbef025d3	-0.46903858
147	0xbf0bacd0	-0.54560566
148	0x3eba9de1	0.36448577
149	0x3df21922	0.118212
150	0xbf804327	-1.0020493
151	0xbe508593	-0.20363455
152	0x3e3ccf8e	0.18438551
153	0x3f2195b5	0.6311906
154	0x3e626106	0.22107324
155	0xbf4cabea	-0.7994982
156	0xbf562bd0	-0.836606
157	0xbf8dcae4	-1.1077542
158	0xbec4c5ec	-0.38432252
159	0xbf3c629a	-0.73587954
160	0xbe81adff	-0.2532806
161	0x3e7fa912	0.24966839
162	0xbe0114ee	-0.1260564
163	0x3f9d4bb7	1.2288731
164	0x3e24a781	0.16079523
165	0x3de20816	0.110366985
166	0x3d64bb20	0.05584252
167	0x3f720053	0.94531745
168	0xbed489d2	-0.415114
169	0xbf5819ff	-0.84414667
170	0xbeb62bb7	-0.35580227
171	0xbf3262a5	-0.6968177
172	0x3e65795a	0.22409573
173	0xbf36e66e	-0.7144536
174	0xbf04a666	-0.51816404
175	0x3ee305bc	0.44340312
176	0x3e26db86	0.16294679
177	0x3f404432	0.7510406
178	0xbe8f8432	-0.28030545
179	0x3eb937b8	0.36175323
180	0xbea7376a	-0.32659465
181	0xbf6ae4bf	-0.9175529
182	0x3df7794a	0.12083681
183	0xbf806921	-1.0032083
184	0x3e3027d5	0.17202695
185	0x3f1634a2	0.5867406
186	0x3e09cb1a	0.13456383
187	0x3d0b2616	0.03397187
188	0x3f89957d	1.0748745
189	0xbf767c89	-0.96283776
190	0xbe0ac75f	-0.13552617
191	0xbdf994dc	-0.12186596
192	0xbd8d2455	-0.068916954
193	0xbd97c24d	-0.07410107
194	0xbee7412b	-0.45166907
195	0x3cd74c21	0.026281418
196	0xbf0ccffc	-0.5500486
197	0x3f376a4e	0.71646583
198	0xbed8c4c7	-0.4233763
199	0xbe097c8e	-0.1342642
200	0x3d7df709	0.06200317
201	0x3f131dd3	0.57467383
202	0x3f8394bd	1.0279766
203	0xbf89d876	-1.0769184
204	0x3fa7a734	1.3097901
205	0x3ebafa36	0.3651902
206	0x3ea122b8	0.314718
207	0x3f31fe50	0.69528675
208	0x3da2adf7	0.079433374
209	0x3c63f31d	0.013912943
210	0x3f5605ef	0.83602804
211	0xbeb0d449	-0.3453696
212	0x3e84856d	0.25883046
213	0xbf89c307	-1.0762643
214	0xbf85c3d4	-1.0450387
215	0x3bce61d6	0.006298284
216	0x3f2d9aad	0.6781414
217	0xbe44267f	-0.1915531
218	0xbcc19a29	-0.02363308
219	0xbd4263cb	-0.04745845
220	0x3d6e8226	0.058229588
221	0xbeb5b3e2	-0.35488802
222	0x3eb7c95a	0.35895807
223	0x3e1dab58	0.15397394
224	0x3e9793c4	0.29604924
225	0xbc5aacfd	-0.013346908
226	0xbe1a02b8	-0.150401
227	0x3df24649	0.11829812
228	0xbf4a6501	-0.7906037
229	0x3d1f509a	0.038895227
230	0xbd90625b	-0.0705001
231	0xbddaf17b	-0.1069059
232	0x3f132468	0.57477427
233	0x3e3d44ad	0.18483229
234	0x3eb5c2a3	0.3550006
235	0x3e143d8d	0.14476605
236	0xbe2be9ab	-0.16788356
237	0x3f940489	1.1563884
238	0xbdcd2352	-0.100165024
239	0xbe9d81d2	-0.30763108
240	0x3d9c4cff	0.07631873
241	0xbd1355f4	-0.035970643
242	0x3e87c399	0.26516417
243	0x3f4c4709	0.7979589
244	0x3e5aa0a5	0.21350344
245	0x3dd673bb	0.104712926
246	0x3f4549ae	0.7706555
247	0x3c2fae26	0.010722673
248	0x3efa7389	0.4891627
249	0xbdb35c4e	-0.0875784
250	0xbecb96a5	-0.3976337
251	0x3ea70d92	0.3262754
252	0xbf8b65bb	-1.0890421
253	0x3f13c602	0.5772401
254	0xbf395175	-0.7238992
255	0xbe44333a	-0.19160166

linear_relu_stack.2.bias f4 [32]
0	0xbf2985e4	-0.66219926
1	0x3f33e032	0.7026397
2	0xbdc06988	-0.093951285
3	0xbef10218	-0.4707191
4	0x3f9f639e	1.2452276
5	0xbe10f3b9	-0.14155473
6	0x3e1e0c7a	0.15434447
7	0x3ed830df	0.42224786
8	0xbe6a08ca	-0.22854915
9	0x3daa852b	0.08326181
10	0xbea5ccc1	-0.32382777
11	0x3e8be009	0.27319363
12	0xbce2b4b8	-0.027674064
13	0xbdaec9df	-0.085345976
14	0xbd4a3b5f	-0.049373027
15	0xbe4259e1	-0.18979599
16	0xbe5050b2	-0.20343283
17	0x3dc1e8ce	0.09468232
18	0x3f56ba18	0.83877707
19	0x3f2608ce	0.64857185
20	0x3de22893	0.11042895
21	0x3e5b3ec9	0.2141067
22	0x3e86b5de	0.2631063
23	0x3cc5624e	0.024094727
24	0xbdddc49f	-0.10828518
25	0xbf15d128	-0.5852227
26	0x3ed9171a	0.42400438
27	0xbcc6ac3d	-0.024252051
28	0x3d810c89	0.06301219
29	0xbe7111c1	-0.23541929
30	0x3e637f6f	0.22216581
31	0x3ee92453	0.45535526

linear_relu_stack.4.weight f4 [4, 32]
0	0xbf868b7a	-1.0511315
1	0x3ecb5eff	0.39720914
2	0x3f9fc7a0	1.2482796
3	0xbf0ad33a	-0.54228556
4	0x403749c5	2.8638775
5	0x3eb86b78	0.36019492
6	0x3eb02212	0.34400994
7	0x3e78d786	0.24300966
8	0xbe26e64b	-0.16298787
9	0xbf4877e9	-0.7830797
10	0x401490d3	2.3213394
11	0x40103942	2.2534947
12	0x3eae9425	0.340974
13	0xc01834b6	-2.3782172
14	0xbf20e804	-0.6285403
15	0xbfdaece5	-1.7103544
16	0xbe7f73e2	-0.2494655
17	0x3f622c3f	0.88348764
18	0x3f8c2e10	1.0951557
19	0x3febddb9	1.8427039
20	0x3f98dd19	1.1942474
21	0x3fb3eed7	1.4057263
22	0xbf07e676	-0.5308603
23	0x3e9572ad	0.29189053
24	0x3ec24889	0.37945965
25	0x3e94ef2c	0.29088724
26	0x3f046080	0.5170975
27	0xbf213dd2	-0.62984955
28	0xbf9e86be	-1.238487
29	0x3fb168c1	1.3860093
30	0x3fab6a38	1.339179
31	0x3df57366	0.11984901
32	0x3d5f0660	0.05444944
33	0xbff84e6a	-1.939893
34	0x3f3eed44	0.7458079
35	0x3f5dfbfa	0.8671261
36	0xc0247cdb	-2.5701206
37	0x3f01d3f2	0.5071403
38	0x3f84305c	1.0327258
39	0x3f8a8f59	1.0824996
40	0x3f2a7f15	0.6660016
41	0x3c16a7c5	0.009195273
42	0xbe267fbc	-0.16259664
43	0x3ed37fd9	0.41308478
44	0xc009cf0f	-2.1532629
45	0x3f8d940b	1.1060804
46	0x3fc4ed55	1.5384928
47	0x3f649450	0.89288807
48	0x3ec3a61c	0.3821267
49	0xbf8a0066	-1.0781372
50	0xbffb31ba	-1.962455
51	0xbe2272f7	-0.15864168
52	0xc02b338e	-2.6750216
53	0x3fddf8e3	1.7341579
54	0xbf26e194	-0.65187955
55	0xbfeeace9	-1.8646518
56	0x3f87989f	1.0593451
57	0xbda64b1c	-0.08119795
58	0x3ff59e68	1.9188967
59	0x3fa88b11	1.316744
60	0x401da30c	2.4630766
61	0xc0283690	-2.6283302
62	0x3cf2f3cb	0.029657265
63	0xbfc3d43d	-1.5299145
64	0x3fdb8370	1.7149487
65	0xbde07449	-0.1095968
66	0xc03d326f	-2.9562032
67	0x402c3108	2.6904926
68	0xbf023e17	-0.5087599
69	0xc0326337	-2.7873056
70	0xc0238685	-2.5550854
71	0x3e98bb0d	0.29830208
72	0xc00ad87a	-2.1694627
73	0x3f344941	0.70424277
74	0xbfcd3201	-1.6030885
75	0x3e831dba	0.25608617
76	0xbf1fa199	-0.62355953
77	0xbf1cb409	-0.6121221
78	0xbf22f42b	-0.6365382
79	0x3f66cdac	0.9015758
80	0x3fe9b70f	1.825899
81	0x4012ca92	2.293614
82	0x3fff338a	1.9937603
83	0xbfea5c07	-1.8309335
84	0xbfb35803	-1.4011234
85	0xbfeca201	-1.848694
86	0x3f860e27	1.0473069
87	0x3f04cb88	0.51873064
88	0xc049e7d8	-3.1547756
89	0x400facfd	2.2449334
90	0xc035d758	-2.8412685
91	0x3fc7308d	1.5561692
92	0xbf487155	-0.7829793
93	0x3f0c67c7	0.5484585
94	0x3f7f6360	0.9976101
95	0x4002eb39	2.0456069
96	0xbf3374b1	-0.7009993
97	0x3fa312cb	1.274011
98	0xbdd24a45	-0.10268072
99	0xbfd2891e	-1.6448095
100	0x3e05f9b7	0.1308354
101	0x3fc69b9e	1.5516241
102	0x3f88f654	1.0700173
103	0xbfd77140	-1.6831436
104	0x40156589	2.3343222
105	0x3f02e532	0.51130974
106	0xbf4a4b48	-0.7902112
107	0xbfe040dd	-1.7519795
108	0x3fdf835b	1.7461962
109	0x3f8ec7c1	1.115471
110	0x3e0d98ee	0.1382787
111	0x3f46547f	0.7747268
112	0xc015d4d5	-2.3411152
113	0xbfbad067	-1.4594849
114	0xbebe4998	-0.37165523
115	0x3dbb68ca	0.09150846
116	0x3fe2b0b7	1.7710179
117	0xbf46223a	-0.77395976
118	0x3f578950	0.841939
119	0x4001425b	2.019675
120	0x3f9ad070	1.209486
121	0xbfbf112a	-1.4927113
122	0xbfe09d97	-1.7548093
123	0xc02a29fa	-2.658812
124	0x3f0a862c	0.5411098
125	0x3f4957fe	0.7864989
126	0xc05295e3	-3.2903984
127	0xbe813784	-0.25237668

linear_relu_stack.4.bias f4 [4]
0	0x3e09cfda	0.13458195
1	0xbe47a0dd	-0.19494958
2	0x3d8ab73b	0.0677323
3	0xbe55f1f2	-0.20893076
